EMG/models/04_RNN/RNN_seq.pth (torch, 66124 bytes, 12 tensors)

rnn.weight_ih_l0 f4 [64, 12]
00000000: 1b71 5bbd 24c6 95bd 0cd9 d5bd 7c80 81bc
00000010: d3e4 c73d bfd7 94bd c736 97bd 9437 b1bd
00000020: 8703 153c 2495 02bd 4feb 413d 0fda b3ba
00000030: caab f13d 728e f33c 1cf4 343d 90cb e6bd
00000040: 1422 903c 00e4 f7bd 437f a73d df0b fc3d
00000050: 5773 cbbd 5796 b4bd 767d ecbd f53c 7ebc
00000060: 8f32 dfbd dc3f f63d b897 063d 8199 29bd
00000070: add6 dc3d ca5f 5d3d 50fc b73b 38b1 b8bd
00000080: d4fe 903d 7b69 df3d f0c4 b63d 5202 bd3b
00000090: eee5 dd3c 090b 873d 9629 c0ba 5be3 d73d
000000a0: fc53 8eba 3a4e fcbd 4e12 413d 585b edbd
000000b0: c079 cebd 398f eabd 4182 cbbc 6aa8 013d
000000c0: 5ce4 16bd 4c9c e03d b5bc acbd 1d51 8d3d
000000d0: 259e 8ebd adfd 88bd bc95 9dbd 626f 373c
000000e0: 625b df3d 9738 e3bd a98b a7bd 8d82 71bd
000000f0: 5537 ebbc 4fef 95bd 6d1a 1b3d 3d47 c7bc
00000100: 528f afbd ec30 273d cae1 e53d c5b4 8abc
00000110: de55 883c 7a50 aabb c668 2ebd d3c4 ff3c
00000120: 4bf3 a1bd aa1c 7d3d 9b43 803d bea3 97bc
00000130: d6e4 ebbd f7be e23d 2f16 f5bd 7cf3 a2bd
00000140: 3a41 9dbd 9ada 0d3d d1ae 6c3c 042a 7bbd
00000150: 24e1 453d 4c88 cb3d 97e8 85bd 2820 fc3c
00000160: 0035 8f3b d12e fcbd f86a f6bc 95cd 833d
00000170: 6be4 1a3c 16cd db3c 5d3c 3ebd b2a5 803c
00000180: 0570 e23d fbf3 b13c dba5 b5bc 8a9b 8c3d
00000190: a89a febc dfa5 1fbd 73e5 d0bd 7c59 36bd
000001a0: 5b02 03bb 3757 173d 7b2a cdbd 09d0 a4bc
000001b0: ed95 ae3c f38c e0bd 0914 5f3d 66e1 913d
000001c0: a207 d93d 83c5 e7bd c24c d73d 3c05 733d
000001d0: 1528 2d3d 659e 63bd f9a1 333d a9f5 b83d
000001e0: 825e 343d 4fba 5ebd c983 e4bd a97e d83d
000001f0: 1100 903d e36e be3d 70ea 8b3d d508 af3d
00000200: 3f7d a53d 7a45 993d d208 6a3d fe8e 973c
00000210: 0ea4 203d 14d9 f8bd baa9 11ba 9ddf ecbd
00000220: 4344 11bc 3942 dfbd 6d00 b63d 037c bd3d
00000230: 81b0 be3d 67c3 c1bd ba4b 143d 5015 44bd
00000240: 68f0 c83d f601 383c 2e6c 063c 6444 5d3d
00000250: 224d e23d 85a7 d43d 1e80 d93d 59a5 363c
00000260: 792f c53c 6daf 2bbc 4c56 69bd 3a80 b4bb
00000270: a99b 253d 216e fc3d 3c4c f9bb d2c3 7f3d
00000280: 2a3d afbd 3f6b a23d fd93 b73d c16b fe3d
00000290: 9a71 8a3d ba1c d73d afed bb3d 1f12 04bc
000002a0: 3fc7 9b3d f3df c1bc f797 0dbc 6d75 733a
000002b0: 967f 613d 85f1 b9bd 9f95 8fbd 26c2 ca3d
000002c0: 0341 51bd c7f3 393c 7605 943d a852 99bd
000002d0: b04b b23c 2d55 943d 76eb 13bc 647a 993d
000002e0: e167 ca3c bcc4 f0bd 84ec fabd e738 8d3d
000002f0: 6515 bf3d 958b 353d 0039 14bb 94e0 d1bc
00000300: b790 b63d 6758 193d 3b09 54bd 9e43 e3bc
00000310: 61a5 13bd 1023 41bd ad59 c9bd 23b8 e73d
00000320: 868c b43c dc41 6bbd 2b03 d3bd d74f c33d
00000330: 6ad3 fdbd 2c4e 2a3d 35de dabd f4e5 cc3d
00000340: d95d fdbd 554a 21bd 367d e73c 35c0 ebbd
00000350: 3290 023c 637b 97bd 703a 9c3d 7fa2 0d3d
00000360: 46c6 d0bd 675a 9a3c ed9a 57bb 3fb8 bdbd
00000370: 3f9c a13d daf2 063d 77ed 273d a386 aebd
00000380: 77ce dabd 182c 453c f90c 2d3d f236 8abd
00000390: 4968 c4bc 920b fd3c 00a7 313d f9b4 ea3d
000003a0: 538b fcbd bb2b b23c 5f7b c13b 1436 a6bd
000003b0: fba0 183d d8d3 2dbd f043 99bd ac8b ac3c
000003c0: 2c60 333d 7a72 e1bd 7c6c b13d 1170 93bd
000003d0: 6ff7 a7bd de3f c0bc 5b34 283d 052c dc3c
000003e0: 4ee2 96bc c885 68bd 34b5 04bc d8f8 e1bd
000003f0: bb29 ef3b 7554 983d 4376 80bc 2bd0 5e3c
-0.053574663 -0.07313183 -0.10441789 -0.015808336 0.09760442 -0.07267713 -0.07383495 -0.08653179
0.009095079 -0.031880513 0.04734355 -0.0013721603 0.11800344 0.02973101 0.044178113 -0.11269295
0.017594375 -0.121040344 0.0817857 0.12306952 -0.09934109 -0.088177375 -0.11547367 -0.015517463
-0.10898315 0.12023899 0.032859534 -0.04140616 0.10783134 0.05404643 0.005614795 -0.09018177
0.070798546 0.10908791 0.089242816 0.005768099 0.027087178 0.06593902 -0.0014660831 0.105414115
-0.001085877 -0.12319608 0.047136597 -0.11589688 -0.10081816 -0.11453099 -0.024842383 0.031654753
-0.036838874 0.10967311 -0.084344305 0.06900237 -0.069637574 -0.0668901 -0.07694575 0.011195989
0.10906102 -0.11094778 -0.08180935 -0.058962394 -0.028712908 -0.07321035 0.037867 -0.024325961
-0.08572258 0.04081814 0.112247065 -0.0169319 0.016642507 -0.005197582 -0.04258039 0.031221783
-0.079077326 0.061794914 0.06262895 -0.018510696 -0.11518256 0.1107158 -0.11967122 -0.07956597
-0.076784566 0.034632303 0.014445976 -0.061319366 0.048310414 0.09938106 -0.065385036 0.030777052
0.0043703318 -0.12313617 -0.030080304 0.06435696 0.009453873 0.026831191 -0.046444286 0.01570401
0.11056522 0.021722784 -0.022173813 0.06865604 -0.031079605 -0.038976546 -0.10200014 -0.044518933
-0.0019990418 0.03694841 -0.10017868 -0.02011873 0.021311725 -0.10964384 0.054462466 0.071230695
0.10597159 -0.11316969 0.10512687 0.059331164 0.042274553 -0.05557098 0.04385564 0.09031231
0.044035442 -0.054376896 -0.111579485 0.105710335 0.07031263 0.09298494 0.06831825 0.085466065
0.080805294 0.07483955 0.057137318 0.018500801 0.039218955 -0.12150779 -0.0005556602 -0.11566088
-0.0088663725 -0.10901303 0.088868 0.09252169 0.09311009 -0.09461098 0.03620503 -0.047871888
0.09811479 0.011230936 0.008204503 0.0540203 0.11049868 0.10383514 0.106201395 0.01114782
0.024070488 -0.0104788365 -0.056967065 -0.00550845 0.040431652 0.12325693 -0.007607965 0.06244261
-0.08556588 0.07930612 0.089637734 0.12422896 0.06759949 0.10503526 0.09176194 -0.008060961
0.076063626 -0.023666358 -0.008642188 0.0009287212 0.055053316 -0.09079269 -0.0701096 0.09900312
-0.05108739 0.011349625 0.07227604 -0.074864686 0.021764606 0.072428085 -0.009028306 0.07494047
0.024707736 -0.11756274 -0.12252143 0.06895619 0.093302526 0.04432257 -0.0022616982 -0.025619783
0.08914321 0.037437823 -0.051766615 -0.027742203 -0.03604639 -0.04715258 -0.098315574 0.11314418
0.022039663 -0.057435855 -0.103033386 0.095367126 -0.1239384 0.041578457 -0.10686914 0.100047976
-0.12371416 -0.03937753 0.028257947 -0.1151127 0.007968949 -0.07396581 0.076283336 0.034578796
-0.10194068 0.018841935 -0.003289874 -0.09263658 0.0789113 0.032946445 0.04099795 -0.08521774
-0.10683911 0.012034439 0.0422487 -0.06748761 -0.023975508 0.030889306 0.043372154 0.11460299
-0.123312615 0.021749368 0.0059045996 -0.08115783 0.037262898 -0.042438358 -0.07483661 0.021062694
0.04379289 -0.11008163 0.0866327 -0.07199109 -0.08201491 -0.023467954 0.041065555 0.026876459
-0.018418457 -0.05676821 -0.008099843 -0.11033791 0.007298676 0.07437984 -0.015681392 0.013599436

rnn.weight_hh_l0 f4 [64, 64]
00000000: d207 833b 31a5 f03c a440 923d 6a51 83bd
00000010: d723 de3d dcd5 233d 8597 b13d bd40 63bd
00000020: 5e7d 803d d3a3 bf3d cfb3 a5bd 659d 8a3d
00000030: 7c12 0e3c 2f6a 933d 26ea b3bd 5121 43bd
00000040: 9625 a83c c086 373c 9a6e c13d cbbf cabd
00000050: a406 14bd 6532 b9bd 82dd c3bd 8a10 8abc
00000060: f5c8 d3bd 580f f03b f017 323d f857 b13d
00000070: 9c1a 883d 20df 333d e779 c2bb 28e3 5d3c
00000080: e7b5 773d 6bbd b33d a6fc 013d df3a 9cbd
00000090: 47a9 4c3d 2405 b93d 4be1 ecbc b498 c9bd
000000a0: 9753 963d 302f f53d ab75 a7bd 4556 5a3c
000000b0: b6e0 66bd 9392 8f3d 0e4d 02bc aa58 913b
000000c0: b0cb ac3d e1a5 e63d 294b 5cbd 8a61 cb3d
000000d0: 2769 d5bd 641e 513d f5cc c6bc 1056 c7bb
000000e0: e721 fabd 8c0c f13d d3bf ad3d ca86 a13d
000000f0: 037f ce3c 4b83 523c 0a73 793d 0062 1a39
00000100: 9000 303d e1d9 9f3d 7429 e03d 0d32 c0bd
00000110: a0a6 ff3c 2c41 873d 2856 853d 701f f03d
00000120: c443 b1bc e3be 923d dca2 d9bd 4d15 d13d
00000130: e9e4 be3d f1f8 b0bd 6705 b6bc a7a6 933c
00000140: 6c4a b23d b396 80bd ea51 833d 6221 9dbc
00000150: 0a6f a4bd 121e 4abc 687e 54bd 8edf 3a3d
00000160: a36b 043c 39b4 453d ea55 f2bd 1c6f a5bd
00000170: e12d ecbc 258c 503d d460 90bd e137 8cbd
00000180: c475 f63d 5f6c 0c3c 3028 093c 77b7 7abc
00000190: ac33 423d a831 f13d 8ec1 623c 0072 d5bd
000001a0: 5c97 47bb 9bc4 3e3d 7ee0 f0bd 863b c73d
000001b0: 2c7a 003e 3997 963b 73f9 f03d 34a8 e5bc
000001c0: 0ae8 e73b 4ed2 bf3d d13a cdbd 9a33 633d
000001d0: f268 7ebd 9099 22bd b98f 473d 8b3b 803b
000001e0: 456d a7bd 56e2 263d 4be0 aebd 336a 8a3d
000001f0: 5a2d 713d 35e9 7cbd 10ca 67bd 1cb8 afbd
00000200: b2c3 3bbc 604e b13d 9dbc dcbc 1b0b edbd
00000210: e593 6abd 9208 993c a0ed 913d f61b adbd
00000220: 4cc6 83bd 5515 e03d 75e6 a5bd b9d5 463c
00000230: c7a4 90bd c350 9bbd adca 783d 0294 87bd
00000240: de3b 76bc 3d24 a73d a142 5bbd 8360 51bd
00000250: 5e83 18bc 1cc8 dcbc 1797 ed3d 0862 423d
00000260: b00e b73d e907 d4bd fc5b b0bd 3e80 b6bd
00000270: fe53 b8bd 672f e63d be71 643c 1a06 bf3d
00000280: 4175 37bd 510a ec3c 0157 523c 32b4 663c
00000290: 9d42 fe3c 0f92 893d 8228 49bd c12c 483d
000002a0: d04c f0bd 3870 83bd ff3e dd3d 5848 853d
000002b0: 42ce 59bd 27ec 383b 9bc8 5a3c 7fb1 633d
000002c0: d69f 5e3d 8011 b43d d246 81bd 30f7 093d
000002d0: 3070 f73b 88d6 7bbd 5e6e b73d d9f0 073d
000002e0: 37b8 fc3d 7f10 94bc c3c5 29bd 9b6e b5bd
000002f0: 3c4e bcbc 7cf8 eb3d 73cd 75bd 01df f03d
00000300: c956 b33d 7e00 963d fd18 3dbc bfe0 70bd
00000310: e7c4 813d 44a4 82bd 3205 e4bc 5c78 e73d
00000320: 6a91 0b3d 6ff2 d0bd 9ea8 8abd aa2a d23d
00000330: e09e 51bd 786c 5ebd fc9f 42bd c605 58bb
00000340: 14c2 c83d 584d e03d 6b4c edbd 6da8 68bc
00000350: 34e5 96bd 2478 a8bd 0cd1 a3bc c836 b8bd
00000360: 66c7 2e3d 4626 5abc f7cf 4ebd 8d90 c63b
00000370: fdd0 e63d d290 313d 2aca 603d e8f8 1fbd
00000380: 873b d63b e26a 3bbc 50b6 ccbd 22ba 64bd
00000390: b1e5 6cbd 89e1 ee3d 574d 49bc 124f b5bd
000003a0: 374c efbb c7b9 62bd 503b fbbc 85ac 18bd
000003b0: 3f86 4a3d 68db 1ebc 7575 6f3d 9f19 f6bd
000003c0: f673 f1bd 77fe 93bb 059f b6bc 05db f1bd
000003d0: 2129 d93d 51a0 4a3d ac37 d9bd b5cc 91bd
000003e0: 8ade c33d 38d7 70bd 7746 b53d 9b6f 483b
000003f0: 4d2e b5bd 1f17 9bbd 4878 fd3d a867 b9bc
0.003998735 0.029375644 0.071412355 -0.06412013 0.1084668 0.039998874 0.08671478 -0.05548166
0.06273912 0.09357419 -0.080909364 0.06768302 0.008671399 0.07197987 -0.08784895 -0.047639195
0.020525735 0.0112015605 0.09444924 -0.09899863 -0.036139145 -0.09042815 -0.09563734 -0.01685359
-0.10341064 0.007326048 0.04347986 0.08659357 0.066457 0.04391396 -0.005934942 0.013542928
0.06047621 0.08776363 0.031735085 -0.07628416 0.049966123 0.090341836 -0.028916022 -0.09843579
0.07340162 0.11971891 -0.0817674 0.013326232 -0.056366645 0.07010379 -0.007952942 0.0044356184
0.08437288 0.11262108 -0.053782616 0.099307135 -0.10420447 0.051054373 -0.024267653 -0.0060832575
-0.122134976 0.11769971 0.08483853 0.07887037 0.025207048 0.0128486855 0.060900725 0.00014723092
0.042969286 0.07805229 0.109454066 -0.093845464 0.031207383 0.066042274 0.065105736 0.11724746
-0.021638758 0.07165315 -0.10626766 0.10209141 0.09321005 -0.08641232 -0.022219373 0.018023802
0.08705601 -0.062787436 0.06412108 -0.019180957 -0.080289915 -0.012336271 -0.051878363 0.045623355
0.008082303 0.048267577 -0.11832793 -0.08077833 -0.02883047 0.050914902 -0.070497185 -0.068465956
0.12034181 0.00857076 0.008371398 -0.0153025305 0.04741256 0.11777049 0.013840092 -0.104221344
-0.0030455207 0.046574216 -0.117615685 0.0972815 0.12546605 0.004595664 0.11766329 -0.028034307
0.0070772218 0.09366284 -0.10020984 0.055469133 -0.062111802 -0.03969723 0.04872105 0.003913348
-0.081751384 0.040743195 -0.08538874 0.06758537 0.05888114 -0.06174584 -0.056589186 -0.08580038
-0.011460232 0.08657527 -0.026945407 -0.11574384 -0.05726995 0.018680844 0.071254015 -0.08452599
-0.064343065 0.10941569 -0.08100597 0.012135916 -0.07062679 -0.075837635 0.06074016 -0.06620027
-0.015028922 0.08161209 -0.05353034 -0.05111743 -0.009308664 -0.026950888 0.11601084 0.04745677
0.08938348 -0.10353071 -0.086112946 -0.08911179 -0.09000395 0.1123951 0.013943134 0.09327336
-0.044789556 0.028813513 0.012838126 0.014081048 0.031037623 0.067173116 -0.049110897 0.048870806
-0.11733401 -0.064178884 0.10803031 0.06507939 -0.05317522 0.002821693 0.013353492 0.055589195
0.05435165 0.087924 -0.06312336 0.033683002 0.0075512156 -0.06148389 0.08956598 0.033188675
0.12339824 -0.018074272 -0.041448366 -0.08858987 -0.022986524 0.11522004 -0.060010385 0.117612846
0.08756787 0.073243126 -0.011541602 -0.058808085 0.06336384 -0.063789874 -0.027834509 0.113022536
0.034074225 -0.102024905 -0.067704424 0.10262044 -0.051176906 -0.054302663 -0.047515854 -0.0032962426
0.098026425 0.10952252 -0.11586841 -0.014200312 -0.07367936 -0.0822604 -0.019997142 -0.08994824
0.04267063 -0.013314789 -0.0504913 0.0060597123 0.1127033 0.043351002 0.0548803 -0.039055735
0.006537858 -0.011439057 -0.09995711 -0.055841573 -0.05783624 0.11664111 -0.012286506 -0.08852972
-0.0073027867 -0.055352952 -0.03066793 -0.037273902 0.049444433 -0.009695865 0.058461625 -0.120166056
-0.11789696 -0.0045164186 -0.022292623 -0.11809353 0.10603548 0.049469296 -0.10606322 -0.07119123
0.0956393 -0.058799 0.08851331 0.00305841 -0.08846722 -0.075727694 0.123764575 -0.022632435

rnn.bias_ih_l0 f4 [64]
00000000: c505 dabd 40ef 9a3c 64d8 eb3d ee43 aa3d
00000010: 132d a7bd 20ed d23d 24ae 6d3d ddb7 05bd
00000020: 1040 bc3d 9d12 343d 1fb6 013d b860 ffbd
00000030: 9f29 9c3d b047 ec3d 8082 e73c 0acb dcbd
00000040: f785 9c3d 0883 90bd 2d54 c13d ede0 5bbd
00000050: 780b f0bd 27a4 7ebc 2dc9 e63d 506f b93d
00000060: aa8c 66bb aa62 79bc c4ae fa3d 641c f23d
00000070: 6797 223c fb0a 9d3d 528c e13c 0ebb 99bd
00000080: 5c6f b73d 1c11 d13d f1b4 16bd d1d1 8abd
00000090: 6957 813d 5979 96bc e9c5 623d d926 1ebd
000000a0: b7f9 1f3d 9a52 d8bd fc62 89bd 81bf 9d3c
000000b0: 5a9e 9ebd eeef 7dbd caa3 a5bd 6120 bf3c
000000c0: 7d57 44bd 13e9 fabd 171b cebd 26ad 81bd
000000d0: a88a df3d cc3a 9b3d e1f8 ed3d 52d1 733d
000000e0: 4a89 9e3d 02da 8b3c cdf5 9ebd b753 d1bd
000000f0: 0af0 383c 3a0c 1c3d 0c1e ba3d 8924 1a3d
-0.10645632 0.018912911 0.115158826 0.08313738 -0.08162894 0.10299134 0.0580274 -0.03264605
0.091919065 0.043963064 0.031667825 -0.124696195 0.07625126 0.11537111 0.02826047 -0.10780914
0.07642739 -0.07056242 0.094398834 -0.053681303 -0.117209375 -0.015542067 0.1126884 0.09054434
-0.0035179057 -0.015221277 0.12240365 0.11821821 0.009923792 0.0766811 0.02753273 -0.07506381
0.08956787 0.102083415 -0.036793653 -0.067783006 0.063155 -0.01836841 0.055364523 -0.038611267
0.039056506 -0.1056263 -0.06708333 0.019256355 -0.07745047 -0.061996393 -0.08087881 0.02333087
-0.047934998 -0.12251487 -0.10063761 -0.063318536 0.109151185 0.07579574 0.116197355 0.059525795
0.077410296 0.017071728 -0.077617265 -0.102210455 0.0112876985 0.038097598 0.09087762 0.0376325

rnn.bias_hh_l0 f4 [64]
00000000: 9d5f 9a3d 3d9e be3d c8a9 e83d 64bb 6fbd
00000010: ab34 0cbd 14c6 afbd 3f99 f2bb bb96 a93b
00000020: dd63 2dbd 5bd1 883d 4567 a0bd bf9a 30bd
00000030: d7a3 89bd 7246 8ebd db70 98bb 36a3 b2bd
00000040: 2153 8abd 86c7 44bd 711f 89bd 0fe7 5d3d
00000050: 9d34 6a3d 2a9a e63d 3362 d8bd 7bd4 523d
00000060: db3e 6dbc 1f03 9bbd e46e 88bd 484c 993d
00000070: df27 e5bd 85c1 053d 1748 f13d f260 cdbd
00000080: 22da 0dbd ca1a fb3d 1192 8b3d b29f adbc
00000090: c2f2 c73d 1f71 923d 27a8 17bc 1587 00be
000000a0: d715 0c3d 8abe cebd 224d d7bd 3c5c 9d3d
000000b0: fcfa 893d 2269 013d 1ac4 d43d 3732 a6bc
000000c0: f7e0 94bd d218 c73c 4476 373d 9629 c6bd
000000d0: 72cd 8b3d bfd1 2a3c cd3b 0c3d b67e 86bd
000000e0: 5f36 373d 51bf cdbd e16e d7bd 6faf 343d
000000f0: ab34 663d bd2b 883d e943 4a3d ab80 b33c
0.07537768 0.09307525 0.11360508 -0.05852832 -0.034229916 -0.08582702 -0.0074035223 0.005175439
-0.042331565 0.066805564 -0.07832197 -0.043116327 -0.06720703 -0.0694703 -0.0046521253 -0.08722536
-0.06754137 -0.048041843 -0.0669545 0.054175433 0.057179082 0.11259873 -0.10565605 0.05147217
-0.014480318 -0.07568955 -0.06661776 0.074852526 -0.111892454 0.032655258 0.11781328 -0.100282565
-0.034631856 0.12260969 0.06814969 -0.021194313 0.09763099 0.071504824 -0.009256399 -0.1255153
0.034200516 -0.10094936 -0.10512759 0.07683608 0.067373246 0.031594403 0.10388966 -0.020287616
-0.07269471 0.024303827 0.04479052 -0.09675901 0.06826295 0.010425984 0.034236718 -0.06567137
0.044729587 -0.10046256 -0.10519195 0.04411262 0.05620257 0.066489674 0.04938117 0.02191194

rnn.weight_ih_l1 f4 [64, 64]
00000000: 33da a83c b84b 14bc 2b36 883d 11a9 613d
00000010: a9c3 173b 29db 1cbd d4b3 b9bd f335 14bd
00000020: 4ed1 f1bd 4ccd f83d c996 9e3d 0b2b 79bd
00000030: ea17 2fbd 8422 91bd 5328 ed3d 1f10 f9bb
00000040: 43eb ba3c 5151 c2bc d11a 21bd 6731 8dbd
00000050: c05f 633d c076 59bd 1b14 ef3d f87f 003e
00000060: 3597 603c 2e89 46bc b8aa d0bd 4abc abbd
00000070: 8866 8fbd 39ed 16ba deb3 a73d f303 84bd
00000080: 5bff c53d 71d9 c7bc bf40 9a3d f3db b03d
00000090: a4f5 ab3d 6a55 ce3d 0d5a cfbd eed0 02be
000000a0: 9f9a 02be e8c6 8abd 433d 763d 1f88 6b3d
000000b0: 44d4 ff3a 5b53 ecbd 0c66 e03d dde6 b7bb
000000c0: 8472 ebbd 8115 d33d 9ca8 9cbc d3d3 233d
000000d0: eccb 423b 4cd7 ec3d 2b55 f43d 4491 033c
000000e0: 2b62 99bd cf6b c138 0dbb ddbd 7944 de3c
000000f0: dd19 73bd 01ef f8bd 92b0 95bc 733b f83d
00000100: f857 5f3d 4daa afbd 5e63 79bd c179 b0bd
00000110: 090a 013e d96f 83bc 8567 c83c 772b da3d
00000120: e30e 7239 201f c33d d305 dcbd 18c9 a53b
00000130: 0f3c 5ebd 1e01 fabd e682 11bd db24 ba3d
00000140: 0048 a739 949c 19bc 935d a03b a1a9 373c
00000150: 3c91 42bc 5bac 0abc 2aff 803c 4c2d 8c3d
00000160: c159 1e3c 793b aa3d bbcb e63d 0a32 ef3d
00000170: 41f0 cfbd 1232 1fbd 49b4 e8bd ebf8 49bd
00000180: 6367 ed3d b829 933c bef1 09bd 4bc5 6a3d
00000190: 1f55 8cbc 27fc a83d 23a6 d83c 1f2d e93d
000001a0: 1d66 e93d 91c7 363d 350a 9f3d b7ae 703d
000001b0: 1831 8fbd b09d 0e3d 8251 283d 96c5 79bd
000001c0: 60c0 2bbd 6928 423d 6cda e03d 65b2 90bd
000001d0: 9037 5abc 8556 dcbd 0a19 efbc 586f b3bd
000001e0: d90c 2f3d 99fd fc3d ceb0 ccbd f98b 8bbd
000001f0: e3c3 e23c b56d 3cbd caa2 f1bd c481 9e3d
00000200: 04b6 543c 0311 bebd 938e e23d 7919 f9bd
00000210: 2efc bd3d a5b1 eb3d 15f0 883d 6bfc 783d
00000220: f394 fd3d 62a7 e43d e806 c9bd baad d93d
00000230: eb74 a1bd 4b7b 77bc d8b0 ce3d 483b 9dbd
00000240: cd39 39b8 dc8b 4e3d 334f ddbd 6e29 a2bd
00000250: 9bd8 d73d b71c bb3d 0d33 a43d c9c8 69bd
00000260: 6dff b3bd 1a5a 5b3d 789f 57bd a9af 253b
00000270: 0d2e d0bd 76ac afbc 969f 9a3d 39f2 623d
00000280: 412e 85bc 0f59 90bd 2867 f53d 04d6 c3bd
00000290: cabc 2c3d 9bec 45bd 0f6b ddbd 4c21 0a3d
000002a0: b961 a7bc 61a2 d13c 0008 eabc 9562 f8bd
000002b0: c132 993c 4f8f e5bd 5f7d ac3a d440 dabd
000002c0: 5766 c8bd 6cee d23d 6b81 313d dfd1 953d
000002d0: d512 26bd ad33 e2bd 3a33 aebd 5047 80bc
000002e0: f1db c6bd 1a17 453c a069 cc3c 7a4f b43c
000002f0: 45b2 b7bd 543e 84bd 35c8 8b3d a803 72bd
00000300: 73ea d8bc f77c 973d fc46 3cbd c74b 31bd
00000310: ff8d c7bc d6eb aebd 17eb c93c e71e d33d
00000320: 1c20 9d3d 8cdd cc3d 097b 863d 562e 8f3d
00000330: dd74 b63d 5ce4 923d bffd a7bd a1b4 ecbd
00000340: 1f3e 033e 068f ad3d 3593 bf3d 4f7f 7fbd
00000350: 913a a03d 7898 0cbc 0296 74bd 7ab7 483d
00000360: 2d14 353c bde5 e93d bd48 763d 94cd f7bd
00000370: cc51 21bb 8f2e 10bd 2620 bd3d b536 853d
00000380: 68c8 443d 8e5f a0bb c58f 283c 0379 8c3d
00000390: de3e 9ebb 9d46 d63b adcb 39bd f091 303d
000003a0: 3111 d1bd e173 f63d a6f0 613d 4dd3 66bd
000003b0: ba50 af3d 6f74 e5bd b6ee 4fbd 8f96 1239
000003c0: 71d5 d83d d202 023e 203a 953d 4b40 4c3d
000003d0: 11b9 c23d 0c84 cabd 67eb a0bc d1d1 b03d
000003e0: e08b d0bd e9da c23c 76a9 0e3d dcc6 d63d
000003f0: df17 f13d e099 903c b70e ca3d fc52 00be
0.020611858 -0.009051256 0.06650957 0.055092875 0.0023157394 -0.038294945 -0.090675026 -0.036184262
-0.118075 0.12148532 0.07743604 -0.060832065 -0.042747416 -0.070866615 0.11579957 -0.0076007987
0.02281726 -0.023720415 -0.039332215 -0.068941884 0.055511236 -0.053091764 0.11673757 0.12548816
0.013707926 -0.012117667 -0.10188812 -0.08385523 -0.07001978 -0.0005757395 0.08188604 -0.06446066
0.09667846 -0.024395676 0.075318806 0.08635702 0.083964616 0.10074885 -0.10124598 -0.12775013
-0.12754296 -0.067762196 0.060117017 0.057502862 0.0019518216 -0.11539336 0.10956964 -0.005612238
-0.114964515 0.10306836 -0.019123368 0.039996933 0.0029723598 0.11564502 0.11930307 0.0080302395
-0.07489427 9.223038e-05 -0.10826693 0.02713226 -0.059350837 -0.121549614 -0.018272672 0.12120714
0.054527253 -0.08577404 -0.06088578 -0.08616973 0.12601484 -0.016044544 0.024463424 0.106528215
0.00023084464 0.09527421 -0.107432984 0.0050593726 -0.054256495 -0.12207244 -0.035525225 0.09089061
0.00031906366 -0.00937571 0.0048939674 0.011209876 -0.011875447 -0.008463944 0.015746672 0.06844577
0.009664954 0.08312125 0.11269327 0.11679466 -0.10153247 -0.03886611 -0.11362512 -0.049309652
0.11591985 0.017964229 -0.03367781 0.05731706 -0.017130433 0.08251219 0.026446408 0.11385559
0.1139643 0.044623915 0.07765619 0.05876037 -0.06991786 0.03481835 0.041093357 -0.06097945
-0.04193151 0.04740182 0.10979161 -0.07065276 -0.013318911 -0.1075869 -0.029186744 -0.087614715
0.04273686 0.123530574 -0.0999466 -0.06813807 0.027681297 -0.046003062 -0.11798628 0.077395946
0.012982849 -0.092805885 0.1106235 -0.12163062 0.09276615 0.115084924 0.06686417 0.0607876
0.123819254 0.11164738 -0.098157704 0.10628839 -0.078836285 -0.015105079 0.10092324 -0.076773226
-4.416127e-05 0.05042635 -0.10806122 -0.07918058 0.10539361 0.09136336 0.0801755 -0.05707625
-0.08788953 0.053552724 -0.052642316 0.0025281704 -0.101650335 -0.02144454 0.0754997 0.055406783
-0.016257407 -0.070482366 0.11982566 -0.095623046 0.04217223 -0.048321348 -0.108114354 0.03372316
-0.02043234 0.025590124 -0.028568268 -0.12128178 0.01870096 -0.112089746 0.0013159922 -0.10656896
-0.09785145 0.102993816 0.043336313 0.0731542 -0.040545303 -0.110450126 -0.085058644 -0.015659004
-0.09709919 0.012029434 0.02495271 0.022010554 -0.08969549 -0.06457201 0.06825296 -0.059085518
-0.026478982 0.07396882 -0.045966133 -0.043285158 -0.024359701 -0.08541076 0.024648232 0.103086285
0.0767214 0.10003194 0.06566436 0.0699126 0.08909009 0.07172462 -0.08202695 -0.1155789
0.12816666 0.08474545 0.093542494 -0.06237727 0.07823671 -0.008581273 -0.05971337 0.049003102
0.011052174 0.11420772 0.060127962 -0.12099758 -0.0024615405 -0.03520065 0.092346475 0.06504575
0.048042685 -0.0048942035 0.010288184 0.06859019 -0.0048292717 0.0065391795 -0.045360256 0.043107927
-0.10208357 0.12033821 0.05516114 -0.056353856 0.08560319 -0.112038486 -0.050764762 0.00013979732
0.10587586 0.12696388 0.07286477 0.049866002 0.09507955 -0.09888467 -0.019643499 0.08633769
-0.10182929 0.023786025 0.03482958 0.10487148 0.11772131 0.017651498 0.09866088 -0.12531656

rnn.weight_hh_l1 f4 [64, 64]
00000000: 1937 c3bc 2817 e3bd fe3e 12bc 0d6d 683d
00000010: 7a11 893d 6aae a3bd a34a f93b b199 033d
00000020: 145f d5bc be0e 773c 4a97 763d e2ee 9bbd
00000030: f677 1f3d 088a 77bd 989d b43d 8726 33bb
00000040: 3fae f9bd fa44 c83d c01d 8f3d 5485 1abc
00000050: f6cc 913d eb68 95bc 014a 283d e145 ab3d
00000060: 642d be3d 9a56 ddbc 1140 a33d ed79 d1bd
00000070: 7cba a03d 8934 adbd 7047 fcbc 01b4 2c3d
00000080: 9315 403d b7f1 023c c4b8 b23d 9c95 843d
00000090: 140d 8b3d 8b37 9dbd 91ec e8bd e899 cc3d
000000a0: 14a4 9dbd be08 fcbd ae17 d0bd e5b5 e43d
000000b0: 984d d5bd d3e8 77bd 83e9 593d f87b 543d
000000c0: dcac 7b3d 4297 95bd 5681 e8bc 44f8 07bd
000000d0: 6b76 24bd 1ce9 cd3d 5f2c d03d a26d 763d
000000e0: 59d0 1cbd 3b16 dabd e3a7 31bd 28b4 36bd
000000f0: faba 92bc 9285 ca3d ca99 b23d 56f1 8f3d
00000100: fcf6 183d 6a6f a0bc cc64 44bd 07e6 49bd
00000110: aea4 5b3c b934 f13a c9d8 fabc 9727 123d
00000120: a6e8 f73d 823c 583d 4812 dabd ed03 c43d
00000130: 445e 9f3d 904f a6bd 6e20 cbbd 2171 c7bd
00000140: da97 ccbd b0cd ddbc bff0 dc3d 5a61 1cbc
00000150: 2b78 ab3d b8e0 b93d ee25 a23d 34c7 1c3d
00000160: 5640 f93c 7f21 03be ed19 8c3d c7de 1cbc
00000170: d584 6abd 6061 bfbd 468c c7bd 27d4 bf3c
00000180: 6896 5c3b 1eb0 babc 3902 023e 3fe5 bb3d
00000190: b3d6 cabd 1ff7 84bd 7ae6 333d be5b afbd
000001a0: 236e 42bd ca34 81bd ea4e f0bc 5aba cb3d
000001b0: 7b8e c03d 21a6 0bbc 687d 633d bfd8 de3d
000001c0: e2d0 6cba b78f a8bd adec 06bd d780 e1b9
000001d0: 86e1 84bd 2815 8c3d 3c58 a9bc 6232 94bc
000001e0: c276 6a3d 3ea3 f5bd 6a1e 32bd 51b7 553d
000001f0: fe1f c6bd 9a1b 643c 3fc4 c03d 5117 9abd
00000200: e29e e0bd 5578 fcbc 7de4 eebd 2ac5 ed3d
00000210: f550 9bbc 605b 813d 736f c93d 6e4f 5fbd
00000220: d43d 8bbd 0bb4 a83d f395 be3d 8ac4 c43d
00000230: 1acb aabd d94a d73b 588c cc3d 0864 a93d
00000240: 3648 5bbd a705 4d3d 908f e2bd dd56 7bbc
00000250: d12f 873c 92cd d03d 9623 aabd ee62 be3d
00000260: 6658 c4bd 796e e83d 779e 8c3b 460a f1bd
00000270: 5a2d 01bd db3c 9fbd 3736 d5bd 6554 403d
00000280: 53bd 073d 8be0 533d 76a2 f83d c5c5 eebd
00000290: 390c b93d 04f6 90bc 9414 d4bb e921 e63d
000002a0: 8cb6 833d 9e4d d53d 4fab 873d d764 f7bd
000002b0: 20e1 fabd e309 e23c 9965 97bd 965a 553d
000002c0: 377d 59bd c1c6 0d3d 6144 ac3d 4b2b 4cbd
000002d0: ebf5 81bd a1c1 0cbd f366 c43d a075 5bbb
000002e0: c274 a0bd 50f6 de3d 0d1b fabd adcc 15bc
000002f0: efdf 6dbd 04ae 8dbd e32a 10bd 10ad 03bd
00000300: 7983 3e3c 7a70 fb3c 33c4 40bd bfcf 26bd
00000310: b5d1 c53b 290e ca3d 54df d3bc 6756 333d
00000320: 7cc1 8fbd 379f 343c 82b4 bf3d 683d 7e3c
00000330: c8f5 553d 061f fa3d f540 e63d 5ab0 173d
00000340: 2ce6 ebbd cc08 b2bd 5013 93bc 33f1 a23d
00000350: 30bc a4bc beef 00bc c4e1 f43c b314 6f3d
00000360: cc3d 04be 4aae 603d adc8 95bd 1a5a 81bd
00000370: b446 cabc 6bcd a03d e625 e23d 592d 81bd
00000380: 563b b43d ba01 21bc 488e 9abd 5516 21bd
00000390: bcb9 c33c 2a5e f33c 46dd 683c b0ec 65bd
000003a0: 1444 88bd a1c8 d23d 0ea3 67bd fa43 e0bd
000003b0: 8aa8 cb3d eca6 66bd 6716 bcbb bbc7 3fbc
000003c0: 8391 473d 56bc b03d 86bc 893d 33ef 62bd
000003d0: 642f ccba bb69 8f3d 9755 dbbb 9d9c 5f3d
000003e0: 7ff1 aa3d 0fde eb3d 55e3 34bc 2a48 58bd
000003f0: 4f9b 1fbd 9ce5 9fbd f79f 263d 363d 48bd
-0.023829984 -0.11088401 -0.008926151 0.056744624 0.066927865 -0.07992251 0.0076077743 0.032128993
-0.026046313 0.015079198 0.060202874 -0.07613923 0.038932763 -0.06043437 0.08819121 -0.0027336197
-0.12191438 0.09778781 0.06988096 -0.009431202 0.07119171 -0.018238505 0.0410862 0.08362938
0.09286001 -0.027018834 0.07971204 -0.102283336 0.07848069 -0.08457286 -0.030795783 0.042163853
0.046895575 0.0079922 0.087266475 0.06473848 0.06789604 -0.076766096 -0.113732465 0.09990293
-0.07697311 -0.12306355 -0.101607665 0.11167506 -0.104151905 -0.060524773 0.05320121 0.05187604
0.06144415 -0.07304241 -0.028381985 -0.03319575 -0.040151995 0.10054228 0.10164713 0.060163148
-0.038284633 -0.106487714 -0.043373 -0.044605404 -0.017911423 0.09888758 0.08720739 0.07028453
0.037344918 -0.019584376 -0.04794769 -0.049291637 0.013405962 0.0018402553 -0.03062095 0.035682287
0.12104921 0.05279208 -0.10648018 0.09571061 0.077816516 -0.08120644 -0.09918295 -0.097383745
-0.09989901 -0.027075619 0.10788106 -0.009544695 0.083725296 0.09076065 0.07917391 0.038275912
0.030426186 -0.12805746 0.068408825 -0.009574599 -0.057255585 -0.09344745 -0.09743552 0.023416592
0.0033658985 -0.022789057 0.1269616 0.091745846 -0.09904232 -0.06492447 0.04392097 -0.0856242
-0.047468316 -0.06308897 -0.029334504 0.09947653 0.09402176 -0.008523495 0.05553952 0.10881185
-0.00090338115 -0.082305364 -0.032940555 -0.00043011337 -0.06488328 0.06839973 -0.020671956 -0.01809043
0.057242163 -0.119940266 -0.043486036 0.052176777 -0.09674071 0.013922596 0.09412431 -0.075239785
-0.109678045 -0.030819098 -0.116646744 0.11609872 -0.018959502 0.063162565 0.098357104 -0.05451911
-0.06798902 0.082374655 0.09305944 0.09607799 -0.0833952 0.006570202 0.09987706 0.082710326
-0.053535663 0.05005422 -0.110625386 -0.015340534 0.016502293 0.101954594 -0.08307569 0.09296213
-0.09587173 0.11349196 0.0042913514 -0.11769538 -0.03153739 -0.07775279 -0.10410731 0.046955485
0.033139538 0.051727813 0.12140362 -0.11658815 0.090355344 -0.017695434 -0.0064721797 0.112369366
0.064313024 0.10415195 0.066244714 -0.120797805 -0.122499704 0.027592605 -0.07392425 0.052088343
-0.05309793 0.034613375 0.0841148 -0.049845975 -0.06345733 -0.034364346 0.095899485 -0.0033486858
-0.0783477 0.10886824 -0.12212191 -0.009143037 -0.058074888 -0.069179565 -0.03519715 -0.032147467
0.011628025 0.030693281 -0.04706211 -0.040725466 0.006036962 0.09865982 -0.025863327 0.04378357
-0.07019326 0.011024288 0.09360601 0.01551757 0.05223635 0.122129485 0.11242858 0.037033416
-0.11518511 -0.08693084 -0.017953545 0.07956161 -0.020109266 -0.007869659 0.02989281 0.05836935
-0.12914199 0.054853715 -0.073136665 -0.06316014 -0.024691917 0.0785168 0.11042385 -0.063074775
0.0880038 -0.009827072 -0.07546669 -0.039327938 0.023892276 0.029707987 0.014212912 -0.056133926
-0.0665361 0.10292173 -0.056551985 -0.109504655 0.09944256 -0.056311533 -0.0057399753 -0.011705334
0.048722755 0.08629672 0.06725411 -0.0554039 -0.0015578088 0.07002588 -0.0066935527 0.054592717
0.08346843 0.11516964 -0.011040528 -0.052803196 -0.038966473 -0.078074664 0.040679898 -0.0488865

rnn.bias_ih_l1 f4 [64]
00000000: a2cc 98bd e42b d43d a1dd b4bd 4653 ccbc
00000010: 9b30 573c 8115 a23c ab03 d53d 14dc 8b3d
00000020: d063 d1bd ea30 2b3d 0881 ebbd a171 6dbc
00000030: 26a9 a5bd 33fc 02be cd13 b13b 4939 233d
00000040: d887 4e3d 2a7f 003c 701b 6f3d b2cd f1bd
00000050: 3591 86bd 4503 1a3d 6312 7ebc 4718 803d
00000060: 40f7 cf3c 684e d33d 4ee2 3fbd 718d 433c
00000070: f2a8 123d 677f d6bd bf77 02bd 5d22 57bd
00000080: eac4 17bd 8cdf 7e3d 5eed f5bd 104b b2bc
00000090: 1616 b23c cec0 35bd 3bf8 9ebd 5ac8 943b
000000a0: 3508 e03d 89ab 64bd 1cf7 ac3c d7f8 1cbd
000000b0: 6c6b ed3d 0bbe d1bd 3e39 f5bd 7f15 7cbd
000000c0: 0247 98bd f1a8 53bd b138 90bd 8d71 253d
000000d0: 1d71 813d a821 4ebd 5dbf 7dbd 4dd1 fbbd
000000e0: faf2 c7bd bd67 3d3b e6a7 b9bc ce3c 85bd
000000f0: d737 41bc 81c0 d83d 0b24 043e 2d80 fb3d
-0.074609056 0.10359934 -0.08831335 -0.024942052 0.013134147 0.019785644 0.1040109 0.06829086
-0.10224116 0.041794695 -0.1149922 -0.014492423 -0.08088903 -0.12791519 0.0054039718 0.039849553
0.05042252 0.007842818 0.058375776 -0.118068114 -0.06570665 0.037600774 -0.015507313 0.062546305
0.025386453 0.10317689 -0.04684668 0.011935578 0.03580565 -0.10473519 -0.03185248 -0.052523006
-0.037053026 0.06222491 -0.12008165 -0.021764308 0.021739047 -0.044373326 -0.0776219 0.0045404853
0.10939065 -0.05582765 0.021113925 -0.03832325 0.11592755 -0.10241326 -0.11973809 -0.061543938
-0.07435419 -0.051674787 -0.07042063 0.040391494 0.06320403 -0.050325066 -0.061950076 -0.1229578
-0.09763141 0.0028900944 -0.022663068 -0.06505738 -0.011793098 0.10583592 0.12904374 0.12280307

rnn.bias_hh_l1 f4 [64]
00000000: 36c5 d3bd ee23 dabd 53cd d63d 82c7 45bd
00000010: a218 f2bd 1cb4 d73d 8b62 f63d 60fc 45bc
00000020: 2a5b 943c 4a54 1c3a 56ed fcbd 7931 df3b
00000030: 3a2f 94bd 37b3 93bd 1299 b13d 6760 33bd
00000040: 6029 8abd d6a9 9f3d ab0d ce3d 47c5 733d
00000050: 63f0 8c3c b228 0cbd 3f47 763d 2c97 97bb
00000060: 86e0 0cbd 74a1 983d 4b4d 8cbd 5ebc ee3d
00000070: 8207 3d3d 9782 f1bb 0244 243c 1b68 103d
00000080: 9d8b 87bc a614 19bd d21f 93bd f08c 9c3d
00000090: 1b0a 273b ee9c 5fbd 217a f3bd e0a6 4cbc
000000a0: 6a56 d03c d354 433d 4751 32bb 66d1 f0bd
000000b0: bb6b e0bc 8d21 e2bd 9ce6 b83c 4b3e ebbd
000000c0: 42c7 34bd 7873 dcbd 60c8 c23c af24 37bd
000000d0: 24e5 a2bd c399 c43c 5664 d53d 932b a33b
000000e0: ae0a d53d b119 913d 0616 74bd 1fb2 1f3d
000000f0: ca47 c03d 12b3 7d3c 6bd5 65bb 5911 773d
-0.103403494 -0.10651384 0.10488381 -0.04828597 -0.118211046 0.105324 0.12030514 -0.012084097
0.018109877 0.0005963488 -0.12349956 0.0068113175 -0.0723557 -0.07211917 0.08671774 -0.04379311
-0.06746173 0.077960655 0.10061201 0.05951431 0.01720447 -0.034218498 0.06012654 -0.0046261754
-0.03439381 0.0745267 -0.0685068 0.11657022 0.046149738 -0.007370304 0.01002598 0.035255533
-0.016546065 -0.037373208 -0.071838036 0.07644069 0.00254882 -0.05459302 -0.118885286 -0.012490958
0.02543183 0.047688317 -0.002720909 -0.117586896 -0.02739512 -0.110415556 0.0225709 -0.11486491
-0.04413534 -0.107642114 0.023777187 -0.04471272 -0.07953861 0.0239991 0.10419528 0.0049795597
0.104024276 0.07084978 -0.059591316 0.03898823 0.09388693 0.015484588 -0.0035069834 0.06031928

fc1.weight f4 [32, 64]
00000000: 4275 cb3d a629 7e3d 94e6 83bb aeef bebd
00000010: 4efe ab3d 3b38 c23d 4c8c 3d3d 73aa f7bc
00000020: 59e6 3b3d e4f9 9a3c 7500 6bbc 1c50 84bd
00000030: 33c1 d3bd e0e7 03be 1498 8b3d ecf4 31bd
00000040: 6597 5a3c 6356 9ebd 443a 693d 79d3 b1bd
00000050: b3d8 e4bc 7aa9 8e3d bd70 883d 5c76 bcbc
00000060: 027a 0dbd a54a 1b3d f085 0abd 4017 b53c
00000070: a9bd c0bd e0d8 9bbd bcf0 5f3d b3c1 ec3d
00000080: 6528 62bc aa1e 203c ce87 abbc 2418 bbbd
00000090: 8dbd c03d 5fee a1bc d9b2 9dbd bc8d 58bc
000000a0: 11c7 d3bd 92b7 3dbd 7fe0 ae3d 952a 93bb
000000b0: 412a a53d 971b f6bc 8e37 653d 4ad7 da3c
000000c0: ece0 d23d 9afb 2e3c d9fc 523d 1417 e3bd
000000d0: 25c3 64bc 8c22 bb3d 60dd f3bd 7a97 a93d
000000e0: c16b 473d 69c1 71bd e351 713d d5e7 d1bd
000000f0: 94a9 1e3d e63c 9e3d f224 db3d 85ea 893d
00000100: a87b bb3a d61c f8bd f5f9 debb 33ff da3d
00000110: 6de3 f23d 60b8 35bd 417d 8cbd 7d3e 153d
00000120: fd61 033d 3548 cf3d 10ce c53d d3c2 84bd
00000130: 594b 37bb fc71 88bc fa3f b2bd 23d4 f3bc
00000140: c650 183d 1c0c dd3d 5afe 293d fa6c 7abd
00000150: 8e34 d0bd ca8b c73d e385 f53d 6813 183c
00000160: 4987 ce3d 805f babc 9810 23bd afb2 9e3d
00000170: 9dbc 633d a798 9ebd 91c6 4f3d c975 c5bd
00000180: 9dbb 95bd 60cb b4bd 5b16 c83d c88b eabd
00000190: 2b87 b6bc 088d 50bd b2bf 1cbd d530 dc3d
000001a0: facc d5bd 1138 bc3d e4e5 9bbd 382a c4bd
000001b0: 6b99 21bc 5289 98bd 82b7 bd3d f0fb b93d
000001c0: 1433 943c 14c3 9b3d 8720 a7bd fad2 b0bd
000001d0: 63ab f93b 1435 17bd daa2 86bd fb28 e13d
000001e0: 40db b2bd 7d47 c0bd 4084 47bc b829 803d
000001f0: ff88 ff3c eac3 0b3d 6ff8 d43c 37c6 e53d
00000200: bf9c c3bd badd 813d 798d 683d c516 da3d
00000210: 6219 bebd 7e89 473d a852 6d3c 2cda c23d
00000220: 7bfb c23c 2b2c 5a3d a4cf 953d b2ac 963d
00000230: 59ed c53d 8e6e 043d a484 063c bb3c 793d
00000240: 95bf 8c3d 7d18 8dbd d63d 65bd 1406 8f3c
00000250: 0b91 bcbc d38e e4b9 e958 f4bd fea5 8bbd
00000260: fc71 05bd 3fdc b1bc 9c7d 2bbd 8baf cdbd
00000270: fe69 523d 569d 55bd e4c9 973d d44d 8bbd
00000280: 61c3 37ba ad53 8a3d 3b62 3a3d 0211 48bd
00000290: 1dbe 113d 361f c4bd 2f62 173d f05d 84bd
000002a0: d558 8d3c 0e4a 1a3d e755 fcbd 0611 cdbd
000002b0: 0251 4e3d 866d 50bd 68da 8ebd e0dd c7bd
000002c0: e63c a6bd 6231 e13d 9af0 aa3d 3c2b c93d
000002d0: 707d 95bd 5bc5 283d 9ded acbc 3ef7 723d
000002e0: 1c17 53bd ce1d e73d 3a43 3f3d 7801 fabd
000002f0: 88b2 ee39 5f7f 90bd 3349 aabd b17e e5bd
00000300: 6869 ce3d 8220 4d3d bc0e bb3d e171 f4bd
00000310: 01f9 533b 2058 973d 7f9e 9fbd c478 df3c
00000320: 2ba7 973d 1edc c2bc db22 5ebd ae76 c43d
00000330: 3b01 ddbd 8cae 54bc a1e6 b8bd bc0b 87bc
00000340: 09a5 83bd 3794 b6bd c856 ca3c d584 d1bc
00000350: af64 01be d6c1 793c 5d20 c2bc d095 503d
00000360: bc6e 333b 67f2 cfbd 2792 41bd 63ee 87bb
00000370: f932 aa3d a6e9 753d b152 c73d e7f5 e5bd
00000380: 0733 cdbc 9ab2 2e3d 2032 4f3d 67a5 ba3d
00000390: 307b c13d 9cd1 d8bc 96a5 bcbd 33c9 23bd
000003a0: 6b47 033c cc0c d53d 6980 f5bd 2d88 dfbd
000003b0: 6f62 14bd 910e 023e d350 dfbd 2b1c 02bd
000003c0: 1a70 af3d 9ee4 f13d 1ca0 003d 42a6 d33d
000003d0: f909 a33d 8c69 963d ebd0 963d 61ac 003d
000003e0: b945 343d 0447 dcbd a64e c6bd 089a 99bd
000003f0: 6692 e9bd d67f e9bd 5611 97bd 722e 583d
0.099344745 0.062051438 -0.00402529 -0.09323059 0.08398114 0.09483381 0.046276376 -0.030232644
0.045873974 0.018917985 -0.014343371 -0.06460592 -0.10339584 -0.12881422 0.06816116 -0.043446466
0.013341759 -0.07731321 0.056940332 -0.08682913 -0.027935361 0.06965919 0.06662128 -0.023005657
-0.034540184 0.037912983 -0.03381914 0.022105813 -0.09411175 -0.07609725 0.05467294 0.11560383
-0.013803576 0.009772936 -0.02093878 -0.09135464 0.09411154 -0.019766985 -0.07700128 -0.013217386
-0.10340703 -0.046317644 0.08538913 -0.00449116 0.080647 -0.030042453 0.055961184 0.026713986
0.10296807 0.010680104 0.051510666 -0.11088386 -0.013962542 0.09137449 -0.11907458 0.08280845
0.048686747 -0.05902234 0.058915984 -0.102492966 0.03873594 0.07726459 0.10700406 0.06734184
0.001430382 -0.12114875 -0.0068046995 0.10693207 0.11859784 -0.044365287 -0.06859828 0.036436547
0.03207587 0.10121194 0.09658444 -0.06482472 -0.0027968495 -0.016655914 -0.08703609 -0.02976424
0.037186407 0.10793325 0.041502334 -0.061139084 -0.10166274 0.097434595 0.119884275 0.009281971
0.10084397 -0.022750616 -0.039810747 0.07748925 0.055599798 -0.0774396 0.050726477 -0.09641606
-0.07311175 -0.08827853 0.09769889 -0.114524424 -0.02228125 -0.050915748 -0.038268752 0.107515015
-0.10439487 0.09190381 -0.076122075 -0.09578365 -0.009863238 -0.07448067 0.09263517 0.090812564
0.018090762 0.076055676 -0.08160501 -0.086339906 0.007619308 -0.036915854 -0.0657403 0.109941445
-0.08733225 -0.09388635 -0.012177527 0.06257957 0.031193255 0.034122385 0.025997369 0.11219447
-0.09551381 0.06341119 0.056775544 0.10648874 -0.09282185 0.048715107 0.014485039 0.09514269
0.023801556 0.053264778 0.07314995 0.07357158 0.09664411 0.032331996 0.008210335 0.060848933
0.06872479 -0.068894364 -0.055967174 0.017458953 -0.02301838 -0.0004359396 -0.11931021 -0.0681877
-0.032579407 -0.021711467 -0.041867837 -0.10043248 0.051370613 -0.052152 0.074115545 -0.06801954
-0.000701001 0.06754241 0.045503836 -0.048844345 0.035581697 -0.095762655 0.03695887 -0.0646323
0.017254272 0.03766828 -0.12321072 -0.100130126 0.050370224 -0.0508857 -0.069752514 -0.09759116
-0.08117084 0.10995747 0.08346672 0.098226994 -0.07299316 0.041203838 -0.021109397 0.05931782
-0.05153571 0.11284982 0.04669497 -0.122073114 0.00045527914 -0.07055544 -0.08314743 -0.11205805
0.100786984 0.05007983 0.0913367 -0.11935783 0.0032344463 0.073898554 -0.077939026 0.027279265
0.07404932 -0.0237866 -0.05423246 0.09592949 -0.1079125 -0.012981068 -0.09028364 -0.016485088
-0.06427962 -0.089149885 0.024699584 -0.025576035 -0.12636064 0.015243968 -0.023697073 0.050924122
0.0027379235 -0.101536565 -0.047258522 -0.004148291 0.083105035 0.060037278 0.09732569 -0.11228543
-0.025048746 0.042650796 0.050584912 0.09113579 0.09447324 -0.026467137 -0.092112705 -0.0399868
0.008012633 0.104028314 -0.11987383 -0.10914645 -0.036226686 0.12700869 -0.10904088 -0.031765144
0.085663036 0.118111834 0.031402692 0.103344455 0.079608865 0.0734435 0.07364067 0.031414393
0.044011805 -0.10755733 -0.0968297 -0.07500082 -0.114048764 -0.11401336 -0.073763534 0.05277867

fc1.bias f4 [32]
00000000: ed79 aabd 9aa7 bc3d 7bfc c83c 2df1 ab3d
00000010: 426c 283d f6b8 8c3d 4e32 ce3d af32 6bba
00000020: 960f 8a3d 9c52 023e 71d2 80bd a938 4a3d
00000030: a646 1c3d 4305 833d 0359 9d3d 00de 683c
00000040: b131 e63d ec20 d83c baed ebbd 172b 65bd
00000050: 92b4 d8bd 1365 afbd 1302 cdbc c16d 5b3c
00000060: 407e 1b3d 6bf1 823d 3b3c fd3d 9ca7 57bd
00000070: 01b5 febc e428 9f3d 34e4 4dbd d8e0 f2bd
-0.08324037 0.09211655 0.024534455 0.0839561 0.041118868 0.06871216 0.100681886 -0.0008972091
0.06741254 0.12726825 -0.062901385 0.04937044 0.038153313 0.06397488 0.07682993 0.014213085
0.11239947 0.026382886 -0.11519952 -0.055949297 -0.10581316 -0.085642 -0.025025403 0.013392867
0.0379622 0.06393703 0.12365004 -0.05265008 -0.031092169 0.07771471 -0.05026646 -0.11859292

fc2.weight f4 [14, 32]
00000000: f875 073e eb79 d43d f022 1e3e 0ad4 3f3d
00000010: 481d f8bd 37a1 2ebd 0b9e 3dbd 2310 f6bd
00000020: e106 0dbe 0d94 913c 0dd7 b2bd 207e 043d
00000030: 66ff e93d 9c48 bf3c 10ac 723d 73ef 9e3c
00000040: c78c 65bd d050 873d fff7 05be 7621 24be
00000050: 3e5c 18be d640 173e 402b 423d a836 77bd
00000060: 48e1 0a3e 9f0f f4bd 5a71 a93d 1b1b 17be
00000070: 0d09 303e f43d 103e 3cf7 e7bc d600 04be
00000080: cd32 18be 74fc 6b3c 418e 953d e542 f4bd
00000090: 7e10 2fbd cfd7 9a3d d84e 0dbe a810 ea3d
000000a0: abd7 b8bc 9730 efbd 31b6 a43d 4232 c0bd
000000b0: 91ac 26be 0176 2fbd 9310 a33c 0f4b 143e
000000c0: ac44 683d fc9f 2bbd 7cb3 2c3c f3d6 0bbe
000000d0: dadb bc3d 8c25 2fbe ddf0 6b3c 9d1e 13be
000000e0: 47fa ed3c 4291 2d3e 1d29 f13d 20e2 da3d
000000f0: 761a 173c ec75 9f3c 4ed7 24bd 05b8 793d
00000100: a8f7 81bd 6374 2a3e 4a95 3f3c f529 923d
00000110: 43b2 33be 8ef1 b63d d1d9 8d3c ddf1 e6bc
00000120: 4266 2cbe be1c 26be 356c 9b3d 2a9a 093e
00000130: 17a2 203e f386 a3bd 0276 773d 41af b03d
00000140: 388a 4fbd bd15 043e 7496 693d 76d0 bc3d
00000150: 93ae 2b3e 7bb3 dd3d 998d 11be 8002 283e
00000160: 42f2 d2bd f651 27be 18f6 ad3d 5708 e13d
00000170: 5b50 0d3e 8535 2a3e 86ee 153e 96e6 3ebb
00000180: d13c fbbd 4a09 03be 93f6 dabd b3aa babd
00000190: 4c21 09be 3ad6 81bc 9a84 babd b911 03be
000001a0: fd87 8ebd cfe2 433d f013 1d3e 78eb 2bbe
000001b0: a0a9 cebd aa7e 753d c001 09be 93ec cc3b
000001c0: 6788 86bd 5fb1 05bd fb45 e5bd 94b5 9a3a
000001d0: 014d c23d af3e 0e3e 892a b93d 5b37 ff3d
000001e0: 987a 353e 0df6 103e 5079 d63d 0fa7 d8bd
000001f0: 4a81 80bd c78e 073e bac0 ea3d 4b1f 363d
00000200: 4e24 0a3e 67f1 0d3e 2b5a 2e3d 5a46 343e
00000210: 5114 55bc 57ed 9ebc b8e7 b53d 782a 30bd
00000220: a324 b43d ee84 1b3e 7f44 063e 2674 f93d
00000230: 4134 f83d da0b bd3d 9fda a8bc d684 2ebe
00000240: 3b2c 963d 8f32 27be 57e4 313d 40de cb3d
00000250: 4c92 9c3d 0429 8abd bc59 87bd f3a2 32bd
00000260: eebf 023e aa08 2abe a2f6 833d 48b6 1cbe
00000270: 6006 f13d 1ed3 303d 991a fa3c e35d be3b
00000280: 3aec be3d 9401 a83d 4b3e 4dbd 2739 39bd
00000290: b8ef 00be 127f 993d a53b 27be 5942 75bd
000002a0: 64d4 883c 0e28 87bb 28af 983d 65f1 1cbe
000002b0: 59c8 79bd ccd3 003e 3d27 51bc 503b 073e
000002c0: f2be b83d c755 09be d2bc b13d a79b d73d
000002d0: c5c7 81bd 8be9 133e 574b 193e eeda bf3d
000002e0: 7e54 61bd e1a9 063d a5ec 2e3e 20a1 2a3e
000002f0: 4ba7 0ebe cbbc d73d 0e90 dd3d 0469 e13d
00000300: be42 c33b cece d63c d8ba f7bc ea61 eb3d
00000310: 93b2 13bd 2b0c 02be b78f 873c 04c3 073d
00000320: 7477 13be b53e 2f3e 118b 3a3a 60a3 7fbd
00000330: 905e a43b 3481 c3bd 28c8 af3c 1f84 00be
00000340: 917b 20be 7d5d ae3d 2e7f cd3d c9d1 e4bd
00000350: 922c 173e 2f39 8fbd 9b74 e83d 7f0d ccbd
00000360: 5514 dcbc d34f babd 8a2e ec3d 55bc 21be
00000370: a32b 1f3e 4010 72bd 3967 c73c 6bf2 093e
00000380: 59c2 d93d 11c1 adbc ee86 6d3d 3ad0 fbbd
00000390: f6fc 2abe 952b c93c 15d7 37bc 40ea babd
000003a0: 871f 253e d9e9 223e ea3a 253d 8267 4f3d
000003b0: fa6c 2fbd a364 09be 331e 31bd f1fe fdbd
000003c0: b097 1ebe b0ea 6cbd 6c56 4bbd 8851 483d
000003d0: d399 52bc 20b6 66bc 7148 0a3e baa7 2b3e
000003e0: ac48 a93d 83b9 0b3c bb73 443d 5dd4 0d3e
000003f0: 8606 883d 0841 2c3d 8460 bdbd a3c2 f1bd
0.13228595 0.103748165 0.15443015 0.046833076 -0.1211496 -0.042634215 -0.0462933 -0.120147966
-0.13772155 0.017770791 -0.08732424 0.032346845 0.114256665 0.023350053 0.059246123 0.019401288
-0.05604246 0.06607211 -0.13082884 -0.1602839 -0.14878938 0.14770827 0.047404528 -0.06035486
0.135625 -0.11917042 0.08273573 -0.14756434 0.17190953 0.14086133 -0.028316133 -0.12890944
-0.14863129 0.014403451 0.073025234 -0.119268216 -0.042740338 0.075606935 -0.13799608 0.11428958
-0.022563776 -0.1167919 0.08042563 -0.09384586 -0.16276766 -0.042837147 0.019905364 0.14481758
0.056706116 -0.04190062 0.010540839 -0.13656215 0.09221621 -0.17104167 0.014400688 -0.14367147
0.029050006 0.16949943 0.1177542 0.10687661 0.009222617 0.01946541 -0.040244393 0.06096651
-0.06346065 0.1664596 0.011693308 0.07136909 -0.1754847 0.08932792 0.017315777 -0.028191501
-0.16835883 -0.16221902 0.07588998 0.13437715 0.15686832 -0.07984724 0.060415275 0.08627177
-0.050668925 0.12898917 0.05702825 0.09219448 0.16765814 0.10825249 -0.14214171 0.16407204
-0.10300113 -0.1633986 0.08494204 0.10987919 0.13800184 0.16621979 0.1464177 -0.002912914
-0.12267459 -0.12796512 -0.106915615 -0.091145895 -0.13391608 -0.015849221 -0.09107323 -0.1279973
-0.069595315 0.047823723 0.15339637 -0.16789043 -0.10090947 0.05993525 -0.13379574 0.006253788
-0.065689854 -0.032639857 -0.11194988 0.0011803382 0.094873436 0.138911 0.09041316 0.1246173
0.17722547 0.14156361 0.10472357 -0.10578739 -0.0627466 0.13238059 0.11462541 0.044463437
0.13490412 0.13861619 0.04256646 0.17604962 -0.013005332 -0.019400282 0.088820875 -0.04300925
0.087960504 0.15187427 0.13112067 0.12180357 0.12119342 0.09230776 -0.02061206 -0.1704286
0.07332655 -0.1632788 0.043430652 0.099545 0.076450914 -0.06746104 -0.06608912 -0.04361243
0.12768528 -0.16604868 0.06443526 -0.1530391 0.11768794 0.043170087 0.03053026 0.005809532
0.093224004 0.08203426 -0.050108235 -0.04522052 -0.12591445 0.0749494 -0.16331346 -0.059877727
0.016702838 -0.004124648 0.074552834 -0.1532646 -0.060982082 0.12580794 -0.012765703 0.1320622
0.09020795 -0.13411628 0.08678593 0.10527735 -0.06336931 0.14444558 0.14970146 0.093679294
-0.05501222 0.032876853 0.1708246 0.16663027 -0.13931005 0.10534056 0.10818492 0.11006358
0.005958884 0.026221659 -0.030240461 0.11493285 -0.036058974 -0.12699954 0.01654802 0.033144966
-0.14401037 0.17113765 0.00071160594 -0.062411666 0.0050161555 -0.09546128 0.021457747 -0.125504
-0.15672137 0.08513925 0.10034023 -0.11172826 0.14763096 -0.06993329 0.11350366 -0.09963512
-0.026865164 -0.090972565 0.11532314 -0.15794499 0.1554399 -0.05909753 0.024341213 0.13471381
0.10632772 -0.021210225 0.057990007 -0.122955754 -0.1669806 0.024556914 -0.011220713 -0.09126711
0.16125308 0.15909518 0.040339388 0.050635822 -0.042828538 -0.13417296 -0.04324169 -0.12402142
-0.15487552 -0.057841003 -0.049642965 0.04890588 -0.012854057 -0.014081508 0.13504197 0.16763201
0.08265814 0.008528116 0.04796193 0.13850541 0.06641869 0.042054206 -0.092469245 -0.11804702

fc2.bias f4 [14]
00000000: afab c9bd e17e 293e 5495 1ebe 74c2 313e
00000010: 76cd 1bbe e3be ee3d 03b5 09be bf53 2dbe
00000020: 4f01 243e 4fdd 253e 915d e03d 5bbe 41bc
00000030: 47b6 9dbd 81c8 093e
-0.09847199 0.16552307 -0.15486652 0.17359334 -0.15215096 0.116575025 -0.13447957 -0.16926478
0.16016124 0.16197704 0.109553464 -0.011825169 -0.07700782 0.13455392
