EMG/models/02_CNN_tabular/cnn_model.pth (torch, 21395 bytes, 10 tensors)

conv1.weight f4 [32, 12, 3]
000000 f0 c5 14 be c1 8c 0b 3e 3c 8f 25 3e 8a 4c 1a 3e
       -0.14528632 0.13627912 0.16167921 0.1506826
000010 a6 85 ba bd 24 2a 54 bd 72 5a 9d bd 88 af 35 be
       -0.09107523 -0.051798 -0.07683267 -0.17742741
000020 16 7e 0c 3e 44 da c5 3d 9b 19 7a 3e 5a ae 17 be
       0.13719973 0.096607715 0.2442383 -0.14812604
000030 bc 55 d5 bd fb 75 17 bf 0f aa 60 bd b2 99 f5 bd
       -0.10416743 -0.591644 -0.05484968 -0.11992206
000040 a6 d9 a6 bc cf d5 f0 bd 02 c1 8f bd b9 ec 7f bc
       -0.020367455 -0.11759531 -0.07019235 -0.015620404
000050 02 ce c3 bd 4f 0c e3 3d e4 83 2a be da f1 00 3e
       -0.09560777 0.11086332 -0.16651875 0.12592259
000060 b4 9d 21 be 7f 3c 33 bd 61 ee 3e 3d df 3c 66 bd
       -0.15782815 -0.043758865 0.046614055 -0.056210395
000070 46 55 0a 3d bf 83 c6 bb 5f 4e 63 3d 4a 5e 03 be
       0.03377273 -0.006058186 0.055494662 -0.12828937
000080 40 8b 97 3d c2 82 10 3e 19 34 a8 3c 7a e5 5e 3d
       0.07399607 0.1411238 0.020532655 0.054418065
000090 94 6a e1 bd 9e ce 90 3e 3a b7 07 bd b1 0d 1f be
       -0.11006656 0.28282636 -0.033133723 -0.15532567
0000a0 0a 8f 16 3e ff ca 78 bc 90 ea 28 3d 68 26 6a be
       0.14703003 -0.015185117 0.04123932 -0.22866213
0000b0 a6 90 27 be d4 f1 51 3d 25 d4 5a 3e 92 34 02 be
       -0.16363773 0.051256016 0.21369989 -0.12715366
0000c0 1a 59 76 bd 71 8a cc bd 80 e2 0f 3d 8e 59 27 be
       -0.060143568 -0.09987343 0.035128117 -0.16342756
0000d0 6a 75 25 be d4 e3 d8 3c 6c 8f d2 3d 05 52 3d bd
       -0.16158071 0.026475824 0.10281262 -0.046220798
0000e0 d8 fe 1c 3e 64 41 63 bd fe af 9b 3c b5 02 88 3c
       0.1533159 -0.055482283 0.019004818 0.016602853
0000f0 35 70 a2 bc b5 e1 2c 3e c2 89 80 bd f4 f8 4d 3d
       -0.019828895 0.16882975 -0.06276275 0.05028625
000100 2e 19 1d be aa 12 0a 3d 7c a6 d6 bd 40 dc b2 3d
       -0.15341637 0.033709206 -0.10480973 0.087334156
000110 00 5b 20 3e fd 19 bf bd d7 a7 5f 3d aa 57 41 3c
       0.15659714 -0.09331129 0.054603424 0.011800686
000120 94 3c d7 bd f5 09 62 3e 60 db 9e bc aa 35 b9 3c
       -0.10509601 0.22074111 -0.019391716 0.022608597
000130 37 e0 3a 3e ae 56 14 be b6 d9 10 be e7 e5 21 3e
       0.18249594 -0.1448619 -0.1414555 0.15810357
000140 ed f3 19 3e 65 d7 bb bd 2f 70 65 be 05 90 ab bd
       0.15034457 -0.091719426 -0.22406076 -0.08377079
000150 b4 d2 48 bd a4 72 65 3b af 4a 3f bd 64 ab 1f be
       -0.049029067 0.0035010958 -0.046702083 -0.15592724
000160 62 d0 3b 3e e0 7a 0d 3b f5 ae 91 bc 9f 4d 98 3d
       0.1834121 0.0021588132 -0.017783621 0.0743668
000170 94 13 d6 bd 6a 1d f3 bc 39 18 e3 3d d0 bb 86 bd
       -0.10452953 -0.029677112 0.110886045 -0.06578791
000180 fc 21 bf 3d 9f cb 91 bc ad ee b7 bd 8d b8 01 be
       0.09332654 -0.01779729 -0.08981071 -0.12668057
000190 6e 72 30 3d 95 1f 85 3d 94 6a cd 3b b5 0f 94 3e
       0.04307788 0.065001644 0.0062688086 0.28918234
0001a0 4a 7d 60 bd d2 b1 9e bd 0d 73 d2 3e 78 c9 1e be
       -0.054806985 -0.0774876 0.41103402 -0.15506542
0001b0 30 8c 7f bd c2 0e 08 3d 6a 2d 4c 3c d0 af 32 bd
       -0.062389553 0.0332172 0.012461999 -0.0436247
0001c0 c9 12 ba 3c 28 98 11 3e be f4 0b 3e ee 8a 50 3e
       0.022714036 0.14218199 0.1366758 0.20365497
0001d0 8a c9 8f 3c 1a a4 85 3d 3d be 91 be af a3 c7 bd
       0.017552156 0.065254405 -0.28465453 -0.09748017
0001e0 6f ae 75 bd b2 20 e7 bd ff 6f 47 bd cd cb 13 be
       -0.059980806 -0.11285533 -0.048690792 -0.14433213
0001f0 ff d8 b1 3c 82 42 c3 bd 28 85 8c 3d f0 49 17 be
       0.021709917 -0.0953417 0.06861335 -0.14774299
000200 77 fe be 3d 52 46 13 3e a9 2c f1 3c 55 c8 01 bd
       0.09325879 0.14382294 0.029440241 -0.031685192
000210 d0 0a 24 3d f0 05 d7 bd a4 bd 72 3d 71 5a 3f bd
       0.040049374 -0.10499179 0.059262887 -0.04671711
000220 c4 de 33 3d d2 32 18 3e aa b4 e6 bd 70 da 84 3e
       0.043913618 0.14863136 -0.11264928 0.25947905
000230 d2 36 a8 bd 6a 56 d4 3b bd 1a 95 3e 4a cf b6 bd
       -0.08213581 0.006480028 0.29121962 -0.08926256
000240 94 70 08 be 91 a5 94 3e 50 df 81 bd 97 f3 c3 bd
       -0.13324195 0.29032567 -0.063414216 -0.095679455
000250 d5 46 c9 3d d8 e1 bb 3d 5a 60 05 bd c3 47 0e be
       0.09827963 0.09173936 -0.03256259 -0.13894562
000260 8a 49 4d 3d 64 50 ce bd 4d f3 0e 3e 48 bf 8c 3d
       0.05011896 -0.10073927 0.1396 0.068724215
000270 bd 9a 9a 3d a1 54 af be 50 66 3a bd ba 8b 2f bd
       0.07549045 -0.34244254 -0.04550773 -0.042857863
000280 ae c3 86 bb ca 08 d5 bd 00 d1 80 bc 0b 73 25 3e
       -0.0041126823 -0.10402067 -0.015724659 0.16157167
000290 00 85 bc 3c 21 35 1c 3e 3e 7b 9a 3d 35 3e 05 ba
       0.023012638 0.15254642 0.07543038 -0.0005082817
0002a0 df c4 e2 bc 6c b0 9d 3d 5c 6f f1 bd 09 68 18 be
       -0.027681766 0.076996654 -0.11788818 -0.14883436
0002b0 77 c3 d8 bd 77 be bf 3d fa eb 4c 3d ed 65 e8 bd
       -0.10584157 0.093625 0.050029732 -0.11347566
0002c0 35 60 ad 3d bf 92 ee 3d d5 76 4a be 05 ac af bd
       0.08465616 0.11649083 -0.19771893 -0.08577732
0002d0 bf 2a 6b bd fc 09 5b be 34 a1 21 be b5 bd b5 bc
       -0.057413813 -0.21390527 -0.1578415 -0.022185186
0002e0 f4 28 a0 be 8a 0b 01 ba 55 82 1c bd 64 8a 54 3d
       -0.31281245 -0.0004922679 -0.03821023 0.051889792
0002f0 ff 70 47 bd 11 29 0e 3e 10 a7 0a 3e 6c 9e be bd
       -0.048691746 0.13882853 0.13540292 -0.0930756
000300 9c 74 25 be 09 94 04 3e 45 86 29 bd b0 12 10 be
       -0.16157764 0.12947096 -0.041387815 -0.14069629
000310 6d 28 6c be f1 d7 11 be 08 d7 85 3d c3 57 ac 3d
       -0.23062296 -0.14242531 0.065351546 0.08415177
000320 b7 5a e1 3d 3f 60 f3 3d 4c 1c 63 be 64 be 01 3e
       0.110036306 0.11883592 -0.22178763 0.12670285
000330 bf ad 44 bb 5c f3 66 3e ca b2 fc bd ff 46 6c bc
       -0.0030010787 0.22553772 -0.12338789 -0.014421224
000340 05 d0 b1 bc bf f3 e0 bd 94 f6 d3 3c bb 7a cf bd
       -0.021705637 -0.10983991 0.025874414 -0.10130831
000350 92 f1 8c 3d 14 d8 bf bd 7b e9 94 be f0 a0 02 be
       0.068820134 -0.093673855 -0.2908438 -0.12756705
000360 22 7d e3 3d 8d e3 63 be 2a 0e 67 3d 95 9d b3 bc
       0.111078516 -0.22254772 0.056409992 -0.021925727
000370 5e 0b f0 bb 5a 58 dd bd 20 2e 2f 3c 70 8c 17 3f
       -0.007325574 -0.10807867 0.010692149 0.59198666
000380 0a 07 27 bd b2 42 00 3e ca 2a 40 be 54 bf 50 bc
       -0.040778197 0.12525442 -0.18766323 -0.012740929
000390 41 e9 24 3e 32 31 4c be 3d 50 af 3d 0a 0a 17 3d
       0.16104604 -0.19940642 0.08560226 0.03687481
0003a0 85 28 76 be ff 3d 45 bc 82 1d a8 bd a5 88 91 3d
       -0.24038894 -0.012038707 -0.08208753 0.07106141
0003b0 9a 01 da 3d 6a bb b5 bc 7d 02 17 3d 0a f9 15 bd
       0.10644837 -0.022184093 0.036867607 -0.036614455
0003c0 c8 bf 92 3d 43 c2 95 3a 44 26 df 3d 20 72 b6 bc
       0.071654856 0.0011425692 0.108959705 -0.022271216
0003d0 0e 4e 5c 3e 2a 54 7a bd 8a 99 0f 3b 48 6b 07 be
       0.2151415 -0.06111542 0.0021911585 -0.13224518
0003e0 1e a1 0b 3e e2 f5 17 be a9 7a a6 3e 84 bc c5 3d
       0.1363568 -0.1483989 0.32515457 0.09655097
0003f0 60 6e 9b 3b eb 85 1c be 34 af d5 3c ff 0a e8 3c
       0.0047433823 -0.1528546 0.02608452 0.028325556

conv1.bias f4 [32]
000000 7f bd 1b be ec 00 cd bc 88 70 f0 3d a7 9b 29 be
       -0.15209006 -0.025024854 0.11740214 -0.16563283
000010 37 c7 19 bf 00 45 93 3d 91 6e 0d bf 6c f8 93 bd
       -0.600696 0.07190895 -0.55246836 -0.07225117
000020 e2 21 1d be 17 a4 92 be 64 2c 1f 3e f4 dc 3f bf
       -0.15344957 -0.28640816 0.15544277 -0.7494652
000030 58 65 2d bf 86 c0 26 bf 0a 40 7b 3d 52 aa 9e bc
       -0.67732763 -0.6513752 0.06134037 -0.019368324
000040 49 8d b7 3e 07 ae 6b be 4e 6d a5 be 5c 1f fe be
       0.3584998 -0.23015605 -0.32309955 -0.496333
000050 4a ac a6 3e 79 ed 33 bf dd f6 2c bd a2 d6 ba 3d
       0.3255332 -0.7028423 -0.042227615 0.09122969
000060 3b 47 1f 3e f4 fd f6 bd ea 62 0c 3e c5 42 b9 be
       0.15554516 -0.120601565 0.13709608 -0.36183754
000070 5b 25 34 bf b0 c4 19 bf 3d a3 c9 bd 54 37 d9 be
       -0.703695 -0.60065746 -0.09845588 -0.42425025

bn1.weight f4 [32]
000000 99 d2 4f bd df ba 63 bd 43 e3 43 3c b8 ae d2 3c
       -0.05073795 -0.055598136 0.011956039 0.025718078
000010 68 6a a9 bd 4b 89 50 bd 9a 6a 2b 3e b2 6a 6f bd
       -0.082722485 -0.050912183 0.16739884 -0.058451362
000020 4c 43 73 3e 20 5e bc 3d e4 cf 8a bd 73 ba 99 3d
       0.2375614 0.091976404 -0.06777933 0.075062655
000030 4e 26 e6 3c 33 69 ae 3d 5c 81 8c 3e 26 df 4f bd
       0.028094437 0.08516159 0.27442443 -0.05074992
000040 51 26 26 3d a1 13 78 3d b6 ec 78 3e 9a 21 4f 3e
       0.040563885 0.060565595 0.24309048 0.20227662
000050 cf 9f 95 3e 7f e3 70 3e 22 ef f9 bc 30 ab 5e 3d
       0.29223487 0.23524283 -0.030509535 0.054362476
000060 8f fa 4d 3a db bb 67 3e aa 12 d8 bd cc 45 67 3e
       0.00078574655 0.22630255 -0.10550435 0.22585219
000070 f5 3d 2f 3e 46 98 00 3f f3 84 e0 3d 89 9b 48 bd
       0.17113478 0.5023235 0.10962858 -0.048976455

bn1.bias f4 [32]
000000 c5 7c a4 be 9d f8 a6 be 38 06 c4 3e b9 95 c0 be
       -0.32126442 -0.32611552 0.38285995 -0.3761423
000010 3a 5e 96 be 73 22 ae be 94 7d ca 3e b9 e2 c2 3e
       -0.29368764 -0.34010658 0.39548934 0.380636
000020 4c 16 c3 3e cf a2 d4 3e af 7c aa be c9 fd c9 3e
       0.3810295 0.41530463 -0.3329825 0.39451435
000030 af 24 c9 3e db 64 ce 3e 30 93 bf 3e 83 6c c0 be
       0.392858 0.40311322 0.37416983 -0.37582788
000040 f2 62 bc 3e 6e 84 c5 3e ab 9e b6 3e b0 1b d0 3e
       0.3679424 0.38577598 0.3566793 0.40646124
000050 26 d4 bb 3e b6 f8 b7 3e ab 6c c6 3e 68 62 cb 3e
       0.36685294 0.3593194 0.38754782 0.39723516
000060 55 94 c3 3e 51 d3 c2 3e 71 3e b6 3e 07 96 c6 3e
       0.38199106 0.38051847 0.35594514 0.38786337
000070 c0 41 c1 3e 0b b2 b8 3e b8 b4 b4 3e 9b f0 a8 be
       0.37745476 0.36073336 0.35294127 -0.32996067

bn1.running_mean f4 [32]
000000 c8 1e 1c be 9b b3 cf bc 0b e1 ef 3d f4 54 28 be
       -0.15246117 -0.025354197 0.117128454 -0.16438657
000010 a8 7b 1a bf 92 47 95 3d 86 04 0d bf 97 8a 92 bd
       -0.60344934 0.072890416 -0.5508503 -0.0715534
000020 14 dc 1b be 88 2c 93 be ac 32 1d 3e 99 d0 3f bf
       -0.15220672 -0.28744912 0.15351361 -0.7492767
000030 01 30 2d bf ec ad 27 bf 46 65 79 3d d6 ac a0 bc
       -0.67651373 -0.6549976 0.060887598 -0.019613665
000040 c6 21 b8 3e 92 1d 6b be 5d 0b a6 be 54 73 fe be
       0.35963267 -0.22960499 -0.32430544 -0.49697363
000050 50 83 a5 3e 29 8e 33 bf 80 0b 2a bd de e5 b9 3d
       0.32326746 -0.70138794 -0.041514874 0.09077047
000060 e6 46 1f 3e 55 fd fb bd de fb 0b 3e 45 3e b9 be
       0.1555439 -0.123041786 0.13670298 -0.3618032
000070 50 b1 33 bf 76 b9 19 bf 58 bc cb bd d8 1f dc be
       -0.7019243 -0.60048616 -0.09948033 -0.42993045

bn1.running_var f4 [32]
000000 87 a8 92 2f 69 41 d4 2f 8d 09 ff 2f 1a e1 8e 2f
       2.667699e-10 3.8609052e-10 4.6391016e-10 2.5989594e-10
000010 1f b3 f1 2f e6 5b 11 30 86 bc 2a 30 34 3e aa 2f
       4.3964918e-10 5.288129e-10 6.211355e-10 3.0967018e-10
000020 05 d3 48 30 79 d2 25 30 13 ea 9d 2f a1 8c 18 30
       7.3059453e-10 6.032575e-10 2.8724453e-10 5.5497124e-10
000030 74 90 14 30 bf b5 8d 2f ca 91 52 30 0c 5c 79 2f
       5.4047367e-10 2.577689e-10 7.6604734e-10 2.267912e-10
000040 10 16 de 2f 6e 3b 05 30 c4 4c 1e 30 1f b7 36 30
       4.039724e-10 4.8469573e-10 5.7589156e-10 6.6471445e-10
000050 d1 09 38 30 40 ba 25 30 5f af 83 2f dc 7e 05 30
       6.695276e-10 6.029133e-10 2.395337e-10 4.8565396e-10
000060 5f c0 26 30 fd fe 2d 30 18 a6 1b 30 73 62 24 30
       6.0663824e-10 6.3299394e-10 5.6624705e-10 5.9802757e-10
000070 f3 2c 2f 30 9c 30 99 30 a0 2e 1d 30 8e 9a b2 2f
       6.3728506e-10 1.1146031e-09 5.7182525e-10 3.248783e-10

fc1.weight f4 [64, 32]
000000 2c 19 c2 bd 98 6b 0a be d7 41 38 3e 0e a4 39 be
       -0.094774574 -0.13517606 0.17993866 -0.18128988
000010 7d 1b 40 bd cd 8f 3a bd 38 03 e8 3d 3c f6 68 3d
       -0.046901215 -0.045547295 0.11328739 0.056875452
000020 0c ac ad 3d 47 13 7f 3e e1 39 5e be ab a2 47 3d
       0.08480081 0.24909697 -0.21701767 0.048739117
000030 17 84 6f 3e f5 4c 24 3e b2 a6 03 3e 1d 64 35 be
       0.23390232 0.16044982 0.12856558 -0.17713971
000040 e2 65 57 3c f5 54 95 3d 42 4f 9c 3e 0f 24 af 3e
       0.013146849 0.07291595 0.3052922 0.34207198
000050 fa f9 a5 3d 3e 9b a9 3e b0 45 a9 3c 3e 12 96 3e
       0.0810432 0.33126253 0.020663112 0.29310793
000060 06 df af 3e 22 21 98 3e 03 56 b7 bc b0 9c 30 3e
       0.3434984 0.29712778 -0.02237988 0.17247272
000070 4f f3 33 3e e0 ab 28 3d 50 4a c9 3d 2c 48 5a be
       0.17573284 0.041179538 0.09828627 -0.21316594
000080 53 66 40 be ec 0a 2e be 63 f1 88 3e b1 1a 3f bc
       -0.18789034 -0.16996354 0.26746663 -0.011664079
000090 a3 75 46 be b4 2e 55 be 9a c7 9c 3b e1 d1 87 3e
       -0.19380812 -0.20818597 0.0047845365 0.26527312
0000a0 fa 10 2d 3d 28 4b 90 3e 2c d8 6e bc ca cc 67 3e
       0.04225252 0.2818234 -0.014577907 0.22636715
0000b0 18 d0 47 3e 71 92 81 3e 29 00 e1 3d 71 18 12 be
       0.19512975 0.25307038 0.10986359 -0.14267136
0000c0 53 0f a6 3d 50 06 1d 3e 43 a3 98 3e fd 59 3d 3e
       0.081083916 0.1533444 0.2981206 0.18491359
0000d0 ce 03 d0 3d 46 32 bb bc 73 2b 5b 3e bc b8 8c 3d
       0.10156976 -0.02285112 0.21403293 0.06871173
0000e0 54 53 74 3e 1d 4d 36 3e 91 8b 05 3e 48 d2 8d bc
       0.23859912 0.17802854 0.13041522 -0.017312184
0000f0 58 ab 8a 3e cb c0 25 3e c2 f1 94 3c 34 ea d5 bc
       0.2708385 0.16186826 0.018181685 -0.026112653
000100 a3 75 22 40 6a ea 20 40 b5 17 12 c0 3c 7c 25 40
       2.53843 2.5143075 -2.282697 2.5857077
000110 1f 20 2a 40 fc 99 17 40 4f f7 25 c0 61 d0 1f c0
       2.6582105 2.3687735 -2.5932195 -2.4970934
000120 45 06 20 c0 d8 8b 1a c0 5d 4f 1e 40 f0 c2 21 c0
       -2.5003827 -2.4147854 2.473594 -2.527523
000130 e0 66 20 c0 87 65 0f c0 82 85 1b c0 59 15 1e 40
       -2.506279 -2.2405717 -2.4300237 2.470053
000140 ab 7d 10 c0 22 f1 18 c0 3c 5a 20 c0 9d d2 15 c0
       -2.2576702 -2.3897176 -2.5055075 -2.3409798
000150 b9 e8 22 c0 da 79 1b c0 ed 38 25 c0 8c b1 21 c0
       -2.5454543 -2.4293122 -2.5815995 -2.5264616
000160 ca a4 1e c0 59 39 24 c0 8d 54 1e c0 92 aa 22 c0
       -2.478808 -2.5660002 -2.4739106 -2.5416608
000170 b7 ec 1d c0 63 08 11 c0 28 63 1a c0 32 40 21 40
       -2.467573 -2.266137 -2.412302 2.5195432
000180 e8 8f 15 40 94 10 1b 40 17 34 11 c0 14 87 0c 40
       2.3369083 2.4228868 -2.2688043 2.1957445
000190 68 41 24 40 4c bb 19 40 f5 5a 10 c0 8f ee 25 c0
       2.566492 2.4020567 -2.2555516 -2.5926855
0001a0 90 2f 15 c0 c9 d5 1e c0 33 8a 1c 40 91 b3 12 c0
       -2.331028 -2.4817984 2.445935 -2.2922099
0001b0 1f 56 16 c0 0d c3 16 c0 ef 9a 20 c0 d0 51 16 40
       -2.3490064 -2.355655 -2.5094564 2.3487434
0001c0 d6 a7 11 c0 a3 81 1b c0 0a de 1a c0 1e 36 21 c0
       -2.275869 -2.4297874 -2.4198022 -2.518928
0001d0 e3 85 13 c0 41 c1 1b c0 e4 9a 17 c0 71 86 21 c0
       -2.3050468 -2.4336703 -2.3688288 -2.5238307
0001e0 dd bb 10 c0 39 e7 0e c0 9a ae 15 c0 28 d3 22 c0
       -2.2614663 -2.2328627 -2.3387818 -2.544138
0001f0 04 ed 10 c0 d4 94 25 c0 37 68 18 c0 e9 c3 18 40
       -2.2644663 -2.5872087 -2.3813608 2.3869574
000200 fd ee 50 bd 76 f3 5b be d6 18 11 3e 81 de 77 be
       -0.051009167 -0.21479592 0.1416963 -0.24205972
000210 8c 90 74 be b9 26 32 be bd ee db 3d 5a 76 75 3e
       -0.23883265 -0.17397584 0.10738895 0.23970929
000220 09 22 9e 3e 05 12 a9 3c e3 a3 8f be dd e9 b0 3e
       0.30885342 0.020638475 -0.28054723 0.34553424
000230 f1 2b 8a 3d 71 f7 0f 3e 61 3c 8a 3d 89 a8 30 be
       0.067466624 0.14059235 0.067497976 -0.17251791
000240 04 0a 97 3e 8a 17 9f 3e a1 60 07 3e 7b b8 c5 3d
       0.2949983 0.31072646 0.13220455 0.096543275
000250 d1 d1 75 3d 52 5d 08 3e 46 a8 51 3e 99 2e dc 3c
       0.06001455 0.13316849 0.20474347 0.026877688
000260 1a 95 ad 3e c1 6a 51 3b 77 7d 0c 3e 00 f8 0e 3e
       0.33902818 0.00319545 0.13719736 0.13961792
000270 7f a1 a2 3d 61 9f 25 3e a1 56 74 3e 19 e4 f0 bd
       0.07940959 0.1617408 0.23861171 -0.11762256
000280 9d 46 12 40 5a 12 17 40 15 5d 0e c0 4e 71 20 40
       2.28556 2.360495 -2.2244313 2.5069156
000290 bb a8 15 40 ac 99 1a 40 01 79 1e c0 9c bd 1d c0
       2.3384235 2.4156294 -2.4761355 -2.4646978
0002a0 1e e1 0e c0 bd 2f 14 c0 8e 48 22 40 3b 80 22 c0
       -2.23249 -2.3154137 2.5356784 -2.5390766
0002b0 ec cb 12 c0 71 b3 18 c0 8b 33 11 c0 1e 29 19 40
       -2.2936964 -2.3859522 -2.268771 2.3931346
0002c0 d8 27 1f c0 fd 2e 18 c0 bf 27 17 c0 ee 31 19 c0
       -2.4868069 -2.377868 -2.361801 -2.3936725
0002d0 7e 61 13 c0 70 8f 11 c0 5f ff 1e c0 b8 70 0c c0
       -2.3028255 -2.2743797 -2.4843366 -2.1943798
0002e0 9f 5f 12 c0 ea c0 13 c0 e9 b6 1f c0 f1 b3 1d c0
       -2.2870862 -2.3086495 -2.495539 -2.4641078
0002f0 09 f0 20 c0 8d 06 12 c0 68 a5 1d c0 0e 2c 1c 40
       -2.5146506 -2.2816498 -2.4632206 2.440189
000300 9d 29 a3 3a 36 40 ca bc f4 8e 2f 3e 5c 3d 30 be
       0.0012448315 -0.024688821 0.17144376 -0.17210907
000310 c4 84 21 bc 3d 7d da bc 0c 09 dc 3d ac 46 9d 3d
       -0.009858314 -0.026671046 0.10743913 0.07679495
000320 c6 55 55 3e ef ed 86 3d 7e 1f 92 be 2f 1f ba 3c
       0.20833501 0.06588351 -0.28539652 0.022719948
000330 8f 0c 15 3d c8 11 e9 3c 5a e0 2a 3e fc 89 2a be
       0.03638893 0.028450862 0.16687146 -0.166542
000340 03 02 52 3e 1c f4 c3 3d 95 d1 99 3e de 9d 08 3e
       0.2050858 0.095680445 0.3004271 0.13341472
000350 67 f1 aa 3c 2a 29 9c bc ae 31 91 3c 44 c1 91 3e
       0.020867063 -0.019062597 0.017723884 0.28467762
000360 28 ed 29 3e 4f 58 11 3e 27 90 37 3e 08 d2 3d 3c
       0.16594374 0.14193843 0.17926084 0.01158572
000370 11 5c 97 3e e3 f2 42 3e 9e 1a 69 3e df bc 26 be
       0.2956243 0.19037966 0.2276406 -0.16282986
000380 f1 dd 73 be 56 eb a9 3b ce 89 60 3e 9c 1b 08 be
       -0.23815133 0.005185525 0.21927568 -0.13291782
000390 b8 75 32 be c8 34 25 be a3 02 20 3d 71 a9 30 3e
       -0.17427719 -0.16133416 0.039065015 0.17252137
0003a0 f5 34 7a 3e a6 fd 64 3e 7c 16 21 be f4 52 15 3e
       0.24434264 0.22362384 -0.15731233 0.14582425
0003b0 74 78 3c 3c a4 80 a7 3e 0d bd 19 3e 99 86 17 be
       0.011503328 0.32715333 0.15013523 -0.14797439
0003c0 cb 99 a3 3e 4a 90 7a 3d f0 81 a1 3e 5f 54 1c 3d
       0.31953272 0.06117276 0.31544447 0.0381664
0003d0 59 d4 90 3e 1d 1e 10 bc 86 5f 52 3e bb e4 ab 3d
       0.28287008 -0.008796242 0.20544252 0.08393236
0003e0 46 d0 89 3d e1 3b 78 3e 47 d5 83 3c ce c5 a9 3e
       0.06729178 0.24241592 0.01609291 0.33158726
0003f0 c9 8a f2 3d 8b 9c 57 3c 96 d2 f4 3d 24 5e a1 bc
       0.118428774 0.013159881 0.119542286 -0.01969821

fc1.bias f4 [64]
000000 38 bd b4 3e 39 29 b6 3e ab 87 0e c0 fb 33 05 c0
       0.35300612 0.35578325 -2.2270305 -2.0812976
000010 6e 8d a2 3e a6 53 05 c0 81 11 97 3e 82 ac 85 3e
       0.31748527 -2.0832305 0.29505542 0.26108176
000020 f6 0e a8 3e 8a 9b 8b 3e d8 66 10 c0 95 63 0b c0
       0.32823914 0.27267104 -2.256277 -2.177953
000030 52 ab 11 c0 a3 1b 05 c0 a6 a1 8f 3e 42 c9 13 c0
       -2.2760816 -2.0798118 0.28053015 -2.3091588
000040 b6 54 a8 3e b0 74 02 c0 44 96 b0 3e bd 95 0d c0
       0.3287713 -2.038372 0.34489644 -2.2122643
000050 0c 2f 06 c0 f0 f5 fc bf b1 dd cc 3e d1 de b1 3e
       -2.0966215 -1.9762554 0.40012887 0.34740308
000060 fc 50 06 c0 39 d2 83 3e 28 b1 0d c0 bb 18 6f 3e
       -2.098693 0.25746325 -2.2139378 0.23349278
000070 ed 0b 04 c0 47 a0 08 c0 de 18 8d 3e e4 41 b3 3e
       -2.063228 -2.1347826 0.27558035 0.35011208
000080 b0 a1 0b c0 72 26 02 c0 bb d5 08 c0 b5 a7 0c c0
       -2.1817436 -2.0335965 -2.138045 -2.197736
000090 b3 29 0b c0 f3 2a 43 bf 87 c6 b3 3e 04 fd 0e c0
       -2.17442 -0.7623741 0.35112402 -2.2341928
0000a0 a9 d4 88 3e e4 44 14 c0 a9 bd 60 3e 3b 4c 0d c0
       0.26724747 -2.3167048 0.2194735 -2.2077777
0000b0 5c aa b7 3e 26 cf 0e c0 1f f9 10 c0 5f 57 0c c0
       0.3587216 -2.2313933 -2.2652051 -2.1928327
0000c0 64 59 10 c0 b5 20 b5 3e 16 08 be 3e c3 04 0e c0
       -2.255456 0.35376516 0.37115544 -2.2190406
0000d0 a7 14 6b 3e 56 74 03 c0 5c 1c 0a c0 92 42 94 3e
       0.22957097 -2.0539756 -2.157981 0.2895704
0000e0 75 e1 6e 3e c8 3e a6 3e 4b ab 11 c0 32 08 91 3e
       0.23328193 0.32469773 -2.27608 0.28326565
0000f0 c8 fc 04 c0 75 38 07 c0 6a d3 87 3e 0f c0 0c c0
       -2.0779285 -2.1128209 0.26528484 -2.1992223

fc2.weight f4 [14, 64]
000000 c0 3f 9e 3a c5 a7 91 bb e8 2c f6 bb 76 9c 3b 3c
       0.0012073442 -0.0044450485 -0.0075126775 0.011450877
000010 8d 1e ae 3b 3d ef 35 3c 5c 20 17 bc d1 2f 03 bb
       0.0053137005 0.011104402 -0.009224024 -0.0020017514
000020 fe 86 84 37 9a 04 52 bb 6f 6b 1c 3a 4a 27 1b bc
       1.5798487e-05 -0.00320462 0.00059669366 -0.009469816
000030 f8 a4 80 bc 5e 19 8f 3c 3b 21 42 3c 35 76 92 bb
       -0.015703663 0.01746815 0.011848743 -0.004469658
000040 53 05 93 3b a2 ea 6b 3c 75 0d d7 ba e9 e7 48 bc
       0.0044867187 0.014399203 -0.0016407209 -0.012262323
000050 df 10 0e bc 4e e7 fa ba 31 81 cb bb 22 5a 3d bb
       -0.008671015 -0.001914242 -0.006210469 -0.0028892835
000060 d7 84 9e bc 1f 24 55 bc 87 c5 90 3c e4 ce bc 38
       -0.019350452 -0.0130091 0.017672313 9.003075e-05
000070 1d 12 f0 3c 3b 0d 3e bd b0 11 50 bc 27 73 8d 3b
       0.029305512 -0.046399336 -0.0126995295 0.0043167057
000080 11 bd 9a bc 6b 39 99 3c e6 47 a3 bc fc 7a ce bc
       -0.018888982 0.018704137 -0.019931745 -0.025205128
000090 d9 88 83 bc 79 da 5c bb ba ab 2b bc d3 16 bf bc
       -0.016056465 -0.0033699556 -0.0104779545 -0.023326313
0000a0 93 bd c7 3b c1 3e 66 bc d1 3c b5 bb f4 29 99 bc
       0.006095597 -0.014053048 -0.0055309315 -0.018696763
0000b0 b1 3e f1 3a 55 ed ae bb 38 76 8f bc 28 67 31 3c
       0.0018405524 -0.005338351 -0.017512426 0.010827817
0000c0 38 35 9e b9 b3 59 0d bc e0 3c 38 bb 7e 8f e8 bc
       -0.0003017576 -0.008627343 -0.0028112456 -0.028388735
0000d0 5c 4f ce 3a 57 8f 8b bc 80 9e cc ba fb 6a 88 3b
       0.0015740204 -0.017036123 -0.0015611202 0.0041631437
0000e0 99 f7 bd bb 29 78 20 3b 26 15 83 bb a4 11 6b 3b
       -0.005797338 0.0024485684 -0.004000324 0.003586867
0000f0 6d 4c 5b bc 4e ac 63 3c f2 e9 6d 3b ed 72 ad 3b
       -0.013384921 0.013896061 0.0036302772 0.0052932412
000100 b5 ef 4e 3d e5 56 29 3d 46 04 8b be 3b 81 8b be
       0.05052157 0.041342635 -0.27151698 -0.27247033
000110 21 f3 f0 3c aa 64 89 be 84 b4 ce 3c b9 3e e8 3c
       0.029412808 -0.26834613 0.025232561 0.028350221
000120 62 61 35 3d a0 14 a4 3c ae b0 8b be 74 d0 80 be
       0.044282325 0.020029366 -0.27283233 -0.25159037
000130 63 ef 6d be 7e 82 75 be 30 d0 45 3d fe fa 7d be
       -0.2323585 -0.2397556 0.048294246 -0.24802777
000140 91 e4 f3 3c 6a 73 81 be b8 d8 24 3d 0d e7 87 be
       0.029772075 -0.25283366 0.04024574 -0.26543465
000150 8b 85 92 be 7f 53 8d be 41 25 e8 3c 53 78 d3 3c
       -0.2861751 -0.27602765 0.028338077 0.025814211
000160 08 66 8a be c4 21 49 3d 40 a9 88 be 7e d2 09 3d
       -0.2703097 0.049104467 -0.26691628 0.033648007
000170 28 1a 89 be e4 11 6f be 6b b0 19 3d 75 26 d5 3c
       -0.26777768 -0.23346668 0.03752176 0.026019314
000180 d4 d5 8c be 62 1b 5b be 03 c9 a1 be 19 15 9f be
       -0.27506888 -0.21397164 -0.31598672 -0.31070784
000190 32 ea 6e be f9 93 5a be 47 48 06 3d 0f 20 84 be
       -0.23331526 -0.2134551 0.032783773 -0.2580571
0001a0 d8 9b db 3c b2 12 8b be 7d fe 01 3d b6 1f 93 be
       0.02680771 -0.271627 0.03173684 -0.2873513
0001b0 69 fa 14 3d f4 b6 77 be 59 e5 62 be a9 5c 8d be
       0.036371622 -0.24190885 -0.22157802 -0.27609757
0001c0 27 f0 86 be 90 50 24 3d 43 24 0c 3d 29 80 7b be
       -0.26355097 0.040115893 0.03421427 -0.24560608
0001d0 8f 31 36 3d 02 02 88 be e1 b0 87 be 15 59 90 3c
       0.044480857 -0.26564032 -0.26502135 0.017620603
0001e0 87 cd f3 3c c2 33 0d 3d f0 75 7d be df e0 3c 3d
       0.029761089 0.03447319 -0.24752021 0.04611289
0001f0 55 10 84 be 20 39 87 be 5c ee 3a 3d 2c 2e 84 be
       -0.2579371 -0.2641077 0.045637473 -0.25816476
000200 75 7c f0 3d 6b 6e a9 3d 85 e6 34 bf eb 63 3e bf
       0.11742488 0.08273014 -0.70664245 -0.7437121
000210 6e 41 fc 3d 47 99 31 bf 42 f8 ab 3d 12 a7 a5 3d
       0.12317167 -0.6937451 0.08396961 0.08088507
000220 68 70 db 3d 98 9e c6 3d b5 e8 35 bf fc 67 34 bf
       0.10714799 0.09698218 -0.7105821 -0.7047117
000230 90 a7 37 bf ad 36 39 bf bc e4 e0 3d 18 f0 34 bf
       -0.71740055 -0.72349054 0.109811276 -0.70678854
000240 b4 4c bd 3d 4f 33 2d bf 78 a4 e3 3d 0b 21 29 bf
       0.092431456 -0.67656416 0.11115354 -0.66066045
000250 78 ff 37 bf 63 7a 36 bf 15 01 c6 3d a6 fc c7 3d
       -0.7187419 -0.712805 0.09668175 0.09764986
000260 3f e9 37 bf c8 9c d8 3d a5 87 1d bf dc 4e bb 3d
       -0.7184028 0.10576779 -0.615351 0.091459006
000270 88 a9 2f bf fc 90 34 bf 65 77 aa 3d 53 11 df 3d
       -0.6861806 -0.7053373 0.08323554 0.10891976
000280 1c 30 3e bf 0b 7b 2b bf 8d c2 41 bf 5b 0d 40 bf
       -0.7429216 -0.66984624 -0.75687486 -0.7502038
000290 7a 9a 30 bf 32 32 26 bf f2 67 93 3d ad c4 34 bf
       -0.6898571 -0.6492034 0.0719756 -0.70612603
0002a0 2d 2f b8 3d 10 bc 34 bf 26 21 b1 3d db ea 3e bf
       0.08993373 -0.7059946 0.08648901 -0.7457711
0002b0 b8 90 cd 3d 1b 04 2b bf b9 8e 38 bf 8b 05 32 bf
       0.100373685 -0.6680314 -0.7209278 -0.6953971
0002c0 a5 98 48 bf d6 82 cb 3d 0e d4 d0 3d 6b 6d 2e bf
       -0.7835792 0.09937064 0.10196696 -0.6813571
0002d0 b5 ce b7 3d f4 0a 3f bf 86 85 30 bf 84 d4 c8 3d
       0.08974973 -0.7462609 -0.6895374 0.09806159
0002e0 b8 cc 61 3d 67 fa af 3d 72 2c 39 bf 00 fb bc 3d
       0.055126876 0.08592682 -0.72333443 0.09227562
0002f0 89 d9 3e bf 44 d0 33 bf 39 91 e9 3d cf 5c 3c bf
       -0.7455068 -0.70239663 0.11404652 -0.73579115
000300 73 44 a1 3e f6 55 9f 3e 29 50 12 c0 19 34 17 c0
       0.31497535 0.3112027 -2.2861426 -2.3625548
000310 44 4d 9e 3e 51 69 15 c0 b7 71 94 3e 1b 3b 91 3e
       0.30918324 -2.334553 0.28993008 0.28365406
000320 f4 67 a6 3e d5 fc 9b 3e 72 db 12 c0 96 34 14 c0
       0.32501185 0.30466333 -2.2946439 -2.3157096
000330 fd f3 10 c0 55 e5 15 c0 08 1c a2 3e 75 d3 10 c0
       -2.2648919 -2.3421223 0.3166201 -2.2629063
000340 8e 60 af 3e 09 bc 15 c0 12 64 b0 3e ba e6 0e c0
       0.34253353 -2.3396018 0.34451348 -2.2328324
000350 ef 94 13 c0 fa f6 16 c0 90 8b 9d 3e 8e 85 a2 3e
       -2.3059652 -2.3588243 0.3077054 0.3174252
000360 a4 22 19 c0 0c cd ac 3e 68 f8 15 c0 26 42 a6 3e
       -2.3927393 0.33750188 -2.3432865 0.32472342
000370 03 50 11 c0 b1 48 13 c0 db b7 9b 3e 6c cb 9b 3e
       -2.2705085 -2.3013117 0.30413708 0.30428636
000380 14 43 15 c0 e5 1f 13 c0 12 1a 11 c0 b6 45 14 c0
       -2.3322191 -2.2988217 -2.2672162 -2.3167548
000390 e9 a1 18 c0 41 24 fe bf 5d 00 b0 3e 43 c5 14 c0
       -2.3848822 -1.9854814 0.34375277 -2.32454
0003a0 84 60 a6 3e 0b ec 13 c0 47 34 ab 3e 39 29 15 c0
       0.3249551 -2.311282 0.33438322 -2.330641
0003b0 b3 98 9f 3e 1f 70 12 c0 77 15 12 c0 32 e9 13 c0
       0.31171188 -2.2880933 -2.28256 -2.311108
0003c0 4d cf 16 c0 c7 2f 98 3e 15 05 a8 3e b0 84 12 c0
       -2.3564026 0.2972395 0.32816377 -2.2893486
0003d0 1e 45 a2 3e e5 0f 1b c0 00 ce 17 c0 64 26 a6 3e
       0.31693357 -2.4228451 -2.3719482 0.32451165
0003e0 c0 3c 9d 3e 8f ef 9e 3e 88 86 11 c0 e9 67 b0 3e
       0.3071041 0.31042144 -2.2738361 0.34454277
0003f0 2f a1 17 c0 30 e3 14 c0 a4 3d b5 3e 42 26 15 c0
       -2.3692129 -2.3263664 0.3539859 -2.33046

fc2.bias f4 [14]
000000 9f 84 e9 40 03 e5 8b 41 90 aa a8 41 7b 7e bd 41
       7.297439 17.486822 21.083282 23.686758
000010 75 b7 c5 41 9a a5 c9 41 a0 81 f5 41 0c c2 13 42
       24.714579 25.20586 30.688293 36.9395
000020 ab 89 c6 41 d7 74 7a 41 20 ab 15 42 87 d8 c2 41
       24.81722 15.653525 37.417114 24.355726
000030 c7 d0 9f 41 57 66 26 42
       19.976942 41.59994
