EMG/models/01_DNN_model/DNN_model.pth (torch, 184728 bytes, 8 tensors)

fc1.weight f4 [256, 12]
000000 19 ce 48 bf 87 83 8a 3e 96 b0 34 40 39 03 9c be
       -0.7843948 0.27053472 2.823278 -0.3047121
000010 3c 66 a6 be 9d 36 ec be 57 94 db 3e eb af 84 be
       -0.32499874 -0.46135417 0.42886612 -0.25915465
000020 32 93 f4 bd a0 5e a8 3f 6c 9f 79 3e 68 d1 92 3f
       -0.11942138 1.3153877 0.24377221 1.1470156
000030 18 f7 d2 be 12 41 7a bc 0b e1 66 3f ed 26 93 bd
       -0.41204143 -0.015274303 0.9018714 -0.07185159
000040 da f8 75 bc af 47 c7 bd a1 13 e7 3d cb 48 6e bd
       -0.015012944 -0.097304694 0.11283041 -0.05817489
000050 b1 16 d7 bd cc 24 35 3f c8 ab 19 3a c8 ab b1 3e
       -0.10502375 0.7075927 0.0005862084 0.3470137
000060 bf 75 6b bd e7 a8 90 bc 7e 0a ea bc 25 a1 87 3d
       -0.05748534 -0.017658664 -0.028569456 0.06622533
000070 41 68 14 3d 4b 7c c4 3b 11 57 63 bd 5a 75 88 bd
       0.036232237 0.005996262 -0.055502955 -0.06663008
000080 13 69 7b 3c e5 14 2c 3d 6f 47 39 bd df 32 94 3d
       0.015344876 0.042012114 -0.04523414 0.072362654
000090 e4 d3 4f bf 8c 95 6f 3e 45 82 31 40 a3 83 b4 be
       -0.81182694 0.23396891 2.773576 -0.3525668
0000a0 24 d7 d6 be 65 43 f5 be bf b9 d1 3e bf 44 06 be
       -0.41961014 -0.4790298 0.40962026 -0.13112162
0000b0 f5 79 61 bd 32 0a b3 3f 91 29 43 3e 8a ac 93 3f
       -0.055047948 1.3987486 0.19058825 1.153703
0000c0 82 a6 1c bd 00 d1 9e bc a2 f8 0e 3c e5 1d 1f 3b
       -0.03824473 -0.019386768 0.008726271 0.0024279293
0000d0 ff 23 d4 3c 16 f6 27 bd 88 77 8a 3d 5f 92 18 3d
       0.02589607 -0.04100617 0.0676108 0.037248965
0000e0 bc b1 5a 3d 7f 93 4c 3d 8e 3c 22 3d a1 d4 82 3c
       0.053392157 0.04994535 0.03960853 0.01597053
0000f0 91 68 98 be a6 38 13 3e c1 dd 6e 3f f1 d4 55 bd
       -0.29767278 0.14377078 0.9330712 -0.05220503
000100 27 bc b7 bd 76 c5 4c be 7c 0f e2 3d d3 98 fe bd
       -0.08971434 -0.199972 0.1103811 -0.12431493
000110 68 3c d6 bd b7 48 ce 3e b6 2c 98 3d d0 0b b5 3e
       -0.1046074 0.40289852 0.07430403 0.35360575
000120 65 20 f9 be 06 aa 24 3e de ee f2 3f e8 a0 82 be
       -0.48657528 0.16080484 1.8979146 -0.25513387
000130 94 a6 95 be 43 0c 9d be a1 ec 6b 3e 1e c0 cc bd
       -0.29228652 -0.30673417 0.23039486 -0.09997581
000140 d4 d5 e1 bd b2 78 44 3f 8a 13 fd 3d 72 5d 5e 3f
       -0.110271126 0.76746666 0.123572424 0.86861336
000150 7f 5f 0a 3d 10 f0 55 bd ec 0f 06 bd 9a 99 36 3b
       0.03378248 -0.052230895 -0.032730028 0.002786255
000160 ab 94 98 bc 49 9f e3 3c cc c2 53 bd 0d cf 62 bd
       -0.018625578 0.027785914 -0.051699445 -0.05537324
000170 d2 1a 01 3d 7e 6d b8 bc 00 71 e3 bc 76 de 4c 3d
       0.03151972 -0.022513147 -0.027763844 0.050016843
000180 94 65 52 bf 34 0c 63 3e 3f 2e 35 40 31 0d c2 be
       -0.82186246 0.22172624 2.8309476 -0.3790069
000190 94 4f c3 be 86 d0 dc be d7 6b f4 3e df c2 22 be
       -0.3814665 -0.4312784 0.47738525 -0.1589465
0001a0 d9 84 be bd 86 ad ad 3f 4c 98 85 3e 0a 80 96 3f
       -0.093026824 1.356858 0.26092756 1.1757824
0001b0 b5 9f 57 be 39 5e d3 3d 32 a2 4f 3f cf 69 4d bd
       -0.21057017 0.10320706 0.81106865 -0.050149735
0001c0 4a a6 85 bd 4b f7 17 be 3e af 07 3d 32 31 c6 bd
       -0.06525858 -0.14840429 0.03312611 -0.09677352
0001d0 a2 a2 93 bd 28 68 cc 3e f4 dd 7f 3d bf 63 aa 3e
       -0.07208754 0.39923215 0.06246753 0.33279225
0001e0 c6 08 59 bf e6 4a 8d 3e e5 92 35 40 60 9b 89 be
       -0.8477901 0.27596205 2.8370907 -0.26876354
0001f0 2e b0 90 be fd 90 ef be 13 84 e8 3e af 16 30 be
       -0.28259414 -0.46790305 0.45413265 -0.17196153
000200 ed 31 bb bd 75 52 af 3f c9 9b 0a 3e 9a 27 9b 3f
       -0.09140382 1.3697039 0.1353599 1.212146
000210 14 73 42 bf 3b c3 85 3e ca 15 33 40 d7 d2 86 be
       -0.75956845 0.26125512 2.798205 -0.26332733
000220 83 9f d7 be 7a d1 03 bf 19 42 bc 3e 3a a0 67 be
       -0.42113885 -0.5149151 0.36769179 -0.22619715
000230 14 8e c2 bd b9 63 b3 3f c6 8c 69 3e fe e5 9a 3f
       -0.094997555 1.4014808 0.22807607 1.2101438
000240 96 ed 29 bd a5 39 89 bd 24 88 82 3d 87 c4 2c bd
       -0.041486345 -0.06700448 0.06373623 -0.04217961
000250 82 ff 1f 3c 74 5b 20 bd bd 15 8a bc d6 4d 5c 3d
       0.009765508 -0.039149716 -0.016856069 0.053785168
000260 c2 89 76 bd a9 ba 6c bd 83 bf 1c bd a7 d9 a2 bc
       -0.06018997 -0.0577952 -0.038268577 -0.019879175
000270 22 72 3c bf 23 db 8e 3e 17 6c 37 40 17 cc 91 be
       -0.7361165 0.27901563 2.8659723 -0.2847602
000280 aa cd 93 be c0 f6 fb be 10 ea f2 3e 30 17 75 be
       -0.28867847 -0.49211693 0.474442 -0.23934627
000290 2c e2 08 3c e5 79 b8 3f 52 2c 0f 3e 90 56 9e 3f
       0.008354705 1.4412199 0.1398175 1.2370167
0002a0 ae 9e 88 3d 12 5e 90 3d 63 fc 18 3c c0 9d 80 3d
       0.06670891 0.070491925 0.009337517 0.062800884
0002b0 fc b6 3f 3d 2e 81 77 bd 93 92 89 bd d9 a5 c7 3b
       0.046805367 -0.06042593 -0.0671741 0.0060927686
0002c0 1e a8 8d bd 60 2e c5 b8 91 42 2e 3d e6 f5 b9 bc
       -0.069168314 -9.40233e-05 0.04254395 -0.022700261
0002d0 c5 07 c8 3b 62 c7 7c 3d f8 8e 2d bd 91 2f 80 bd
       0.006104442 0.061713584 -0.042372674 -0.062590726
0002e0 30 8c 91 3d 97 a0 e2 bb 35 04 34 3d 7d f8 49 bd
       0.07106817 -0.0069161165 0.043949325 -0.049309243
0002f0 0f 71 0f bd 6f cd bc 3c 86 48 5a 3d 69 71 83 3c
       -0.03501993 0.023047177 0.05329182 0.01604529
000300 42 83 0a bc e8 e8 0a 3d 59 4a 41 bd bd 8c 7a 3d
       -0.008454146 0.033913523 -0.047190044 0.061169375
000310 07 d0 46 3d bc d9 8b bd 69 a7 8d 3c d7 fe 8e bd
       0.048538234 -0.06828639 0.017291741 -0.069822006
000320 2b 42 8e 3d 90 4f 6c bd 44 6a d5 3c 06 c9 09 3d
       0.06946214 -0.057693064 0.026051648 0.033638977
000330 26 4f 50 bd 4e 8a 5d 3c d2 94 32 3d 60 f6 0b 3d
       -0.05085673 0.013521744 0.043598957 0.03417051
000340 a0 9d 44 3d 33 9c 6b 3d 6f 2f 8c 3d 9a d5 82 bc
       0.048001885 0.05752201 0.06844985 -0.015970994
000350 b2 8f 6f bd 59 2d 3c 3d 7d b7 d1 bc 3a 40 0b 3d
       -0.058486648 0.045941684 -0.02560019 0.033996798
000360 37 4b 84 3c e7 a3 1a bc c7 de 35 bd 1e 80 46 bd
       0.016149146 -0.009438491 -0.04440191 -0.048462026
000370 be 44 06 bd f9 79 4a bd e1 d5 89 bd e6 f7 fd 3c
       -0.0327804 -0.04943273 -0.06730247 0.031001996
000380 62 cd 76 bc 9f 39 91 bc 8e 9c 8b bd 06 66 6a bd
       -0.0150636155 -0.017727671 -0.0681697 -0.057226203
000390 1c 72 63 bd cc af 00 bd 98 58 63 bd e4 51 4d bd
       -0.055528745 -0.031417653 -0.05550441 -0.050126925
0003a0 36 a0 81 bd e8 11 3c bc 6c 80 77 3d d2 f1 66 3d
       -0.06329386 -0.011478879 0.060425207 0.05638296
0003b0 36 89 8b bd 5f fe b3 bb 00 21 89 bd d3 95 8e bd
       -0.0681328 -0.00549297 -0.066957474 -0.069621705
0003c0 36 28 43 bf 7b 92 6c 3e 19 ae 39 40 13 56 8f be
       -0.7623323 0.23102753 2.901251 -0.27995357
0003d0 d6 64 d5 be e7 83 cf be 64 9f c6 3e fa 90 38 be
       -0.41678494 -0.4053032 0.3879348 -0.18024054
0003e0 5c d8 2b bd dc 71 b9 3f 02 16 81 3e d7 5a 97 3f
       -0.041954383 1.4487872 0.25212103 1.1824597
0003f0 19 c0 5c bf 66 31 5b 3e 0f e6 30 40 e1 a7 a7 be
       -0.8623062 0.21405563 2.7640417 -0.3274527

fc1.bias f4 [256]
000000 93 5c 30 3e ec cd c3 bb eb 13 5c bd 02 02 aa 3d
       0.17222814 -0.0059754755 -0.053729933 0.08301164
000010 e8 5e 5b bc 16 17 aa bc 6c a2 14 bd 9a b2 3e bc
       -0.013389327 -0.020762961 -0.03628771 -0.011639262
000020 59 e2 08 3e 27 e6 27 bc 29 2a e5 3c 8f ac 1b 3e
       0.13367595 -0.010247744 0.027974205 0.15202545
000030 a6 f9 95 bd 5a de 33 3e a9 c6 7a bd b3 23 fa bb
       -0.07323007 0.17565289 -0.061224613 -0.00763365
000040 6e 22 7b bc 6e 3a 86 bd 8e 05 1d bc 8b 01 15 bb
       -0.015328033 -0.06554113 -0.009583844 -0.0022736515
000050 60 c1 2c 3e 22 6c 3a 3e 72 04 84 bd 76 9c 26 3e
       0.16870642 0.18205312 -0.064461604 0.16270623
000060 3c fb 1e bd 93 82 a4 3d 48 e3 27 bb 5f 37 cd 3d
       -0.038813815 0.080327176 -0.0025617648 0.10020327
000070 09 ed 15 bd 08 e9 c3 bc 87 61 85 bc e4 ad ec bc
       -0.036603007 -0.023914829 -0.016281856 -0.028891511
000080 67 63 b5 3d ba 5f cc bc b9 70 c4 3d ca 9d 95 bc
       0.0885685 -0.02494799 0.09591813 -0.018263716
000090 1f e5 30 bc 51 b3 4e bd 30 4e 4e b9 61 9e 09 bc
       -0.010796814 -0.05046398 -0.00019674818 -0.008399577
0000a0 b1 9c f0 bc 2c 8c 32 3e db 77 6c bb 9e 95 e9 bc
       -0.029371591 0.17436284 -0.0036082182 -0.028513726
0000b0 e3 c2 04 3e b5 ae b6 bb 10 c9 2c 3e b7 62 32 bd
       0.12964968 -0.005575026 0.16873574 -0.043551173
0000c0 df 1d bd bc d4 2d 96 3d 74 c2 bc bb ad 87 db bc
       -0.023085533 0.0733296 -0.0057604853 -0.026798094
0000d0 72 5c 0d bc 7b 92 84 3d 5e 40 82 bd 5a ab 95 3c
       -0.008627998 0.064732514 -0.06359933 0.018270183
0000e0 0a eb 83 bd 39 68 8a bd 6c a2 43 3e b8 d8 fd 3d
       -0.064413145 -0.0675816 0.19104928 0.123948514
0000f0 42 f1 0c bd 3b 1b 6b bd a4 9d 3c 3e 28 5c d3 bc
       -0.03440977 -0.057399016 0.1841951 -0.02580078
000100 08 2f 1c 3e e3 92 6d bb 98 c5 3c bd 87 1f 7a bd
       0.15252316 -0.0036250881 -0.046086878 -0.061065223
000110 b2 03 d6 bc bf 88 53 bd af af 0e 3e d8 70 a4 bb
       -0.026124809 -0.051644083 0.13934205 -0.005018335
000120 ca f0 eb 3d 31 71 85 bb 7e 98 9f bc b1 56 dd bc
       0.11520536 -0.0040723314 -0.019481894 -0.027018877
000130 e0 d8 2f 3e 88 16 41 bc 32 f5 69 bb 06 c5 84 bd
       0.17172575 -0.011785157 -0.0035699126 -0.06482892
000140 70 45 72 bd 37 3e 0d 3e 65 64 ec bc 32 3d fa bc
       -0.059148252 0.13793264 -0.028856466 -0.030546758
000150 f3 02 67 3d ff 89 91 bd a7 7f 0f 3e ba 8b 02 bc
       0.056399297 -0.07106399 0.14013539 -0.007967884
000160 dc fb f2 3d 13 bc f4 3d 48 6c 7a 3d fb 3d 1b 3e
       0.118644446 0.11949935 0.06113842 0.15160362
000170 28 47 0f bd 25 5f 9e bc 02 74 3b 3e 6e d1 13 3e
       -0.03497997 -0.019332478 0.18305972 0.1443536
000180 58 3d 7f bb e7 4c 32 bc d1 10 ef 3d 20 06 2e 3e
       -0.0038946476 -0.010882593 0.11673129 0.16994524
000190 87 c7 3b bd 83 33 b4 bc 6b b3 41 3e 02 a6 32 3e
       -0.04584458 -0.021997219 0.18916099 0.1744614
0001a0 f1 93 cb bc 22 08 11 3d a7 4b 6b bd 34 96 12 bd
       -0.024850817 0.035408147 -0.057445195 -0.035787776
0001b0 00 72 c5 bc de 58 54 bd 48 4d f7 bc 40 dd 50 3d
       -0.024102211 -0.051842563 -0.030188218 0.05099225
0001c0 a7 1b b4 3d 33 93 cb bc 6c 8f 0e 3e e2 76 13 bd
       0.08794337 -0.024850463 0.13921899 -0.036002047
0001d0 22 67 00 3e 35 b2 18 bd ad 36 df bc 44 f4 32 3e
       0.12539342 -0.037279326 -0.027247751 0.17475992
0001e0 86 42 7c bd aa f4 a5 3d 2e 63 d0 3d d7 bf 22 3e
       -0.06158688 0.081033066 0.10175167 0.15893494
0001f0 f5 4d a7 bc 26 16 6c bd 77 0f 86 bc a2 4b c2 3d
       -0.020422915 -0.05763831 -0.016364796 0.09487082
000200 9c 37 91 bc 22 bc 7b bd c5 10 16 bd d6 08 77 bd
       -0.017726712 -0.061458714 -0.036637086 -0.06031116
000210 a3 b1 b1 bc 6e 7b c5 bc f6 cc ca bc ea 89 3a 3e
       -0.02169115 -0.024106707 -0.024755936 0.18216673
000220 4f b8 09 3e 0e 37 8e bc ce 21 2b bb 92 0e 5b 3d
       0.13449214 -0.017360236 -0.0026112678 0.053480692
000230 5e 47 ac bc 03 ec 46 bc 31 c8 30 3e 4b ec 04 bc
       -0.021030124 -0.0121412305 0.17263867 -0.008112977
000240 54 65 16 bd e7 1e a6 3d c7 98 83 bd 98 32 3a bd
       -0.036717728 0.08111363 -0.06425624 -0.045458406
000250 c9 ac 18 3e 7a 88 0a bd ac 66 77 bc 70 a9 cf bc
       0.14909662 -0.03382156 -0.0151001625 -0.025349349
000260 f0 c4 46 3e 82 67 3a bd 96 55 4b bd ac f1 c6 bc
       0.19411063 -0.04550887 -0.049642168 -0.02428516
000270 b5 5d d2 bc de 0a 46 bd 2b df b3 bc 8b 96 2e 3e
       -0.025679449 -0.048350208 -0.021957 0.17049615
000280 f8 e1 0c 3e 0d 5f 5b bd 88 65 89 bd 3e 0f 31 3e
       0.13758075 -0.053557444 -0.06708819 0.1729097
000290 00 3e 8b bd 20 48 d0 bc f4 49 df bc 69 a6 19 bd
       -0.06798935 -0.025425017 -0.027256943 -0.037512217
0002a0 48 0d 51 bd b0 5f 80 bd 33 8e bd 3d 1d 8d 14 bd
       -0.051038057 -0.06268251 0.09255638 -0.03626739
0002b0 86 41 41 bd 79 ea d3 3d dc a8 65 bc a3 0b 35 bb
       -0.04718163 0.103474565 -0.01401731 -0.0027625344
0002c0 48 df 08 3e 7a 10 19 3e ca b2 1c 3e c1 16 2c 3e
       0.13366425 0.14947692 0.15302578 0.16805555
0002d0 14 8e 2d 3e 94 8b 5d bc 75 f6 cd 3d ea 85 25 bb
       0.1694873 -0.013522048 0.100567736 -0.002525682
0002e0 d9 af 49 3e 66 a3 6a bc 1e 0d f4 3d 0e 59 60 bd
       0.19695987 -0.014321184 0.119165644 -0.05477243
0002f0 49 6b 97 bc 69 43 10 bd 1b f0 1d 3e 03 3c 94 bd
       -0.018483775 -0.035220537 0.15423624 -0.07238009
000300 3d 06 2d bb 45 96 40 bd 82 83 43 bd 3b 0d 6b bd
       -0.0026401423 -0.04701831 -0.047732837 -0.057385664
000310 28 9f 05 bb 9d 05 92 bd 92 a8 d5 bb d9 25 ff bc
       -0.0020389054 -0.07129977 -0.0065203393 -0.031145977
000320 13 27 03 bd e3 9b 59 bd c7 d8 6a 3d 0c 19 cf bc
       -0.032019686 -0.05312718 0.05733564 -0.025280498
000330 78 f0 96 bd c4 d3 86 bd 24 e3 53 bc 04 b5 9a 3d
       -0.073700845 -0.0658336 -0.0129325725 0.07554057
000340 b6 2d dd bc 33 94 90 3d 01 1f 52 bd 57 f2 b9 bb
       -0.026999336 0.07059517 -0.0512991 -0.005674641
000350 75 7c 54 bc 65 7e 31 bd 02 bc b2 3d 8c 5d 5a bd
       -0.012969126 -0.04333343 0.08727266 -0.05331187
000360 7f 80 67 3c 3b e6 31 3e 34 ca b4 3d 0d b0 bd bb
       0.014129757 0.17372982 0.0882763 -0.005788809
000370 62 0f 54 bd 1e c9 32 bc a2 c3 17 bc bb 4a 68 bb
       -0.051772483 -0.010912208 -0.009262951 -0.0035444933
000380 0c 51 47 bd 25 71 44 3e 73 48 a7 ba bf 14 2a 3e
       -0.048661277 0.19183786 -0.001276268 0.16609477
000390 76 03 4b bc ac 4f 4b bc 7a ae 40 3e 1f 8e 2e 3e
       -0.012390962 -0.012409132 0.18816558 0.17046402
0003a0 18 6b 97 3d de be cd bb e6 db 01 3e 10 bd c5 bc
       0.073934734 -0.0062788567 0.12681541 -0.024138004
0003b0 58 78 39 3e 66 4a 3a 3e 61 04 1c bd b7 ce 6f bd
       0.18112314 0.18192443 -0.038090114 -0.058546748
0003c0 ee 89 d4 bc b6 d1 47 3e c8 e1 92 bd 20 3e 26 3e
       -0.025944676 0.19513592 -0.071719706 0.16234636
0003d0 71 b3 1f bc 48 ee 05 bd 5f cf a2 3d ca 90 88 bc
       -0.009747372 -0.032697946 0.07949709 -0.016670603
0003e0 dd 7a 1d bd d6 fa a1 bc 28 9a 98 bc 1c a7 35 3e
       -0.03844725 -0.019772928 -0.018628195 0.17739528
0003f0 81 c8 e2 bb 08 fb 1b 3e 8c 42 39 bd 17 07 3c bc
       -0.0069208746 0.1523248 -0.04522948 -0.0114763

fc2.weight f4 [128, 256]
000000 f8 02 11 3e 7a 39 f2 bb 16 e7 7f bc 24 77 6b 3d
       0.14161289 -0.0073921056 -0.01561906 0.05748667
000010 4a 37 14 bb a6 19 f0 3b 3a 58 73 bc ea 12 a8 3b
       -0.0022615963 0.0073272763 -0.014852578 0.005129208
000020 89 37 f6 3d 96 01 e2 bb 8b 72 65 3c 31 fc f2 3d
       0.12022311 -0.0068971617 0.01400436 0.11864508
000030 4f 27 6d 3b 83 aa 0d 3e fb 28 30 bc 44 3f 21 3b
       0.003618676 0.13834576 -0.010751958 0.002460436
000040 c7 29 e4 bb ca b5 2c 3c c2 76 75 bc aa 1f 81 3a
       -0.006962988 0.010541389 -0.014981927 0.0009851356
000050 68 1e 0b 3e 89 b9 20 3e 68 42 15 3c 07 3a 05 3e
       0.13585818 0.15695776 0.009110071 0.13010417
000060 c8 a0 75 bc f5 a4 80 3d 73 5f c3 3b 79 72 a7 3d
       -0.0149919465 0.06281463 0.005962306 0.08176131
000070 0e 34 22 bc 29 e1 73 3b de d4 de bc 6e f9 49 bc
       -0.009900106 0.0037213063 -0.027201112 -0.012327535
000080 44 59 b0 3d b2 5e 84 bb 8b 7d a9 3d fc 60 bc ba
       0.08610776 -0.004039609 0.082758985 -0.0014372165
000090 47 c4 54 3c 16 1e 4f 3c 09 4c b7 ba 76 4b 2f 3b
       0.012986249 0.01264145 -0.0013984452 0.002674786
0000a0 e4 a6 ae bb 83 58 0f 3e 4d eb 18 3b e6 20 4a 3b
       -0.0053299535 0.13998608 0.002333361 0.0030842363
0000b0 cc 7b fb 3d cb f8 86 bc bb 92 15 3e fe c5 a3 3b
       0.12279472 -0.016476056 0.14606754 0.0049979677
0000c0 ee 50 59 bd f2 bd 87 3d fb 30 50 bb 89 61 7b bb
       -0.053055696 0.06628026 -0.0031767476 -0.0038357696
0000d0 8d 78 75 3c 5f 2f 7d 3d fa 86 02 bb 16 25 6d 3c
       0.014982355 0.061812755 -0.0019916878 0.014474174
0000e0 79 7a 3e 3c c6 be 0a 3b 80 44 19 3e 5f cb ee 3d
       0.011625879 0.0021170839 0.14967537 0.11659884
0000f0 78 6b 32 bc a4 4d 45 bc b1 34 14 3e cb e4 fb bc
       -0.01088988 -0.012042437 0.14473225 -0.030748745
000100 b5 e4 05 3e 95 5d 04 bc b5 c0 3b 3c 3f 40 6b 3c
       0.13075526 -0.008078952 0.011459519 0.014358579
000110 20 fd 27 3b 0d d7 da 3b 0e d6 e0 3d c1 37 16 bb
       0.0025633052 0.006678468 0.10978328 -0.0022921416
000120 d9 6d d3 3d dc e4 ea 3b b7 77 0e bc ae b4 47 3c
       0.10323686 0.0071683954 -0.008695534 0.0121890735
000130 4c b0 20 3e 7f 51 a1 bc 6e 43 8b 3b 83 0f 91 ba
       0.15692252 -0.01969218 0.0042499816 -0.0011067245
000140 81 c2 1d bc d4 6f f3 3d 14 84 91 bb 69 ce 1f bd
       -0.009628893 0.11886564 -0.004440794 -0.039015207
000150 b9 db 35 3d 55 cb 5e 3c d2 d6 e0 3d 0c 8a 62 bc
       0.044398997 0.013598283 0.10978474 -0.013826858
000160 92 75 f5 3d 42 cc ce 3d 3b a9 81 3d f9 ee 14 3e
       0.119853154 0.10097553 0.06331106 0.14544286
000170 b4 31 45 3a 89 75 5d 3c ff 4a 1f 3e b7 c9 ff 3d
       0.000752236 0.013516792 0.15555952 0.12489646
000180 26 6d 3c bc 35 83 0f 3a 5b 20 e9 3d f3 7d 09 3e
       -0.011500632 0.00054745685 0.113831244 0.13426952
000190 a4 db 5f 3b 71 21 ef bc fc ea 2e 3e e6 d7 17 3e
       0.0034158016 -0.02919075 0.17081827 0.14828452
0001a0 2d d2 ef 39 67 81 78 3c ac d7 d6 bb 8c 44 ce 3b
       0.00045742225 0.015167571 -0.006556472 0.0062947925
0001b0 4b c2 df bc 29 49 17 39 bd ea d0 3b c5 84 0c 3d
       -0.027314326 0.00014427736 0.0063756392 0.034306306
0001c0 db 7e 9d 3d 5e 8d 3f 3c af 63 fc 3d bf 19 4c bc
       0.076902114 0.011691419 0.12323701 -0.01245731
0001d0 12 42 cb 3d 75 82 40 3c ab 29 76 3c e0 2e 0a 3e
       0.09924711 0.011749853 0.015024583 0.13494444
0001e0 c1 68 3c bc a9 93 a8 3d ae fe cd 3d 40 1d 16 3e
       -0.011499585 0.08231289 0.10058342 0.14659595
0001f0 52 e6 21 bc 3c 30 7c 3c ce 11 44 bc 4f a2 bc 3d
       -0.009881573 0.015392359 -0.011967136 0.092106454
000200 46 b1 a3 bc d6 70 df bb 66 53 19 bc b3 fe 5c 3c
       -0.019981991 -0.006818871 -0.009358263 0.013488459
000210 af bc a3 bb 96 32 5e 3c 20 5f 9a 3b bb 29 1c 3e
       -0.004996858 0.013561865 0.004711047 0.15250294
000220 90 4d 04 3e 64 44 38 bc 09 1c 58 3b b7 2b 30 3d
       0.12920213 -0.011246774 0.0032975695 0.04301044
000230 9a ec f3 3b 75 77 49 bc 27 0b 10 3e 8f d2 0e bc
       0.0074439766 -0.012296547 0.14066754 -0.008717193
000240 4c 85 b6 3b 35 c7 8e 3d 40 ca 09 3c f1 52 2b 3a
       0.0055700894 0.069715895 0.008410037 0.00065354916
000250 8f 57 11 3e 72 39 68 3b 7f 08 36 3c d6 a4 ac bc
       0.14193557 0.003543463 0.011110424 -0.021074694
000260 af 1e 2f 3e 28 59 d3 bb 62 9b 00 bc c0 0e 63 3c
       0.17101549 -0.0064498372 -0.007849546 0.013858497
000270 de a5 4f bb 78 d3 0f bc 7c 6b 8d 3b 75 fa 09 3e
       -0.0031684558 -0.008778445 0.0043157917 0.13474448
000280 a0 fd 09 3e 2c da 10 bc b7 5f 32 bb 69 0c 20 3e
       0.13475657 -0.008841079 -0.0027217695 0.15629734
000290 db 14 36 3b 64 ba 6f bc 56 ac 2b bb 20 fc cd 3b
       0.0027783427 -0.014631841 -0.002619525 0.006286159
0002a0 0e f7 3e 3c 01 31 8c bb f8 bb a0 3d 26 e6 57 3b
       0.011655582 -0.0042783027 0.07848352 0.0032943576
0002b0 40 d3 68 3b d4 34 c8 3d 7c f3 f7 3b 7c 55 5f 3b
       0.0035526305 0.09775701 0.0075668674 0.0034078052
0002c0 44 40 05 3e 35 a1 f3 3d 21 f8 f7 3d 10 11 17 3e
       0.13012797 0.11895982 0.12107874 0.14752603
0002d0 e4 5d 0d 3e 5d 12 ba bc 88 fa a0 3d 5d f6 51 bc
       0.13805348 -0.022713834 0.07860285 -0.012815085
0002e0 48 0a 31 3e c1 be af 3a 7d 15 f5 3d 89 9a ea bb
       0.17289078 0.001340829 0.11966989 -0.0071595353
0002f0 de 75 eb bb 2d c5 14 bc 60 91 fc 3d 38 ea 2c 3b
       -0.0071856817 -0.0090802135 0.123324156 0.0026384722
000300 cc d8 e9 bb 67 ae 55 bc a9 df fe ba b3 c8 01 3c
       -0.00713644 -0.013042069 -0.0019445318 0.007921386
000310 e4 69 d0 ba 01 05 d4 39 4e e7 73 bc f3 90 c5 bc
       -0.0015900698 0.0004043952 -0.01488669 -0.024116969
000320 63 28 0b bd c7 03 81 3c 75 aa 62 3d 9f fe 7e bc
       -0.033974063 0.015748871 0.05533834 -0.015563636
000330 a6 a7 6e bc 3b ee a1 3b c4 7d 37 3b 5c 1b 8d 3d
       -0.014566338 0.0049417294 0.0027998546 0.06889984
000340 6e 03 90 3b 6c 02 89 3d e2 3d 9d bb e0 d2 ef 39
       0.00439494 0.06689915 -0.004798637 0.00045742746
000350 78 67 21 3c 81 75 9a ba ea 6a 89 3d 20 19 a3 3b
       0.009851329 -0.0011784286 0.06709845 0.0049773604
000360 7b 9a cb bb a6 0a 11 3e 1f 12 b3 3d 52 06 80 3a
       -0.006213484 0.14164218 0.08743691 0.0009767509
000370 65 ed df 3b c0 02 15 3c 63 df de 3b f8 8c 11 3c
       0.0068337196 0.009094894 0.006801532 0.008883707
000380 59 a4 a0 3a ba 64 15 3e be 9b 36 3b 58 32 05 3e
       0.0012256011 0.14589205 0.0027863826 0.13007486
000390 78 2f 51 3c c1 2e 48 bb 26 8f 19 3e 36 f2 22 3e
       0.012767665 -0.0030545446 0.14996013 0.15912709
0003a0 3a d2 8c 3d 61 09 17 bc da 4c f4 3d ff 37 07 bc
       0.06876035 -0.009218545 0.11928721 -0.008253097
0003b0 f3 21 2b 3e 51 e8 0c 3e 07 f1 ce ba dc 92 80 3b
       0.1671217 0.13760497 -0.0015788384 0.003923757
0003c0 42 81 f4 bc 75 a6 19 3e cd 38 80 bc a6 c9 ff 3d
       -0.029846791 0.15004905 -0.015652085 0.12489633
0003d0 71 24 f5 3b 25 a6 cb 3b f5 fe a8 3d 46 5e cc bb
       0.007481151 0.0062148743 0.08251754 -0.006236824
0003e0 72 f2 3c bc 8f 65 62 3c 20 b5 bc 3b 7e 13 28 3e
       -0.011532413 0.013818159 0.0057588965 0.16413686
0003f0 02 5e 33 bc a1 da fb 3d 18 54 e7 b9 cf 23 d5 bc
       -0.010947706 0.122975595 -0.00044122408 -0.026018051

fc2.bias f4 [128]
000000 4b 72 83 3e 54 31 0c bc 5a 3a ce 3b 18 32 88 3e
       0.25673136 -0.008556683 0.006293577 0.26600718
000010 e1 00 88 bb 54 e1 d7 bb a0 b7 3d 3b c5 72 84 3e
       -0.0041504954 -0.0065881405 0.002894856 0.25868812
000020 7f 46 21 bc 16 fe 13 bc 2d fe 37 bc 58 04 8e 3e
       -0.009843468 -0.009032747 -0.011230034 0.2773769
000030 55 de 88 3e 07 a9 5a 3c 8d 9e 2b 3c 82 f2 8e 3e
       0.26732126 0.013345963 0.010474813 0.27919394
000040 db fd 89 bb 2d 2f 8c 3e 77 34 45 bc 6d a2 84 3e
       -0.00421117 0.27379742 -0.012036434 0.2590517
000050 c6 93 08 bc 4b bb 5a bc f0 da 83 3e 0e ee f7 bb
       -0.008336013 -0.013350318 0.25752974 -0.00756622
000060 13 cd 06 bc bf 96 74 bc d9 8d 98 bb 1f a0 35 3c
       -0.008227604 -0.014928519 -0.0046555814 0.011085539
000070 f0 65 3c bc f8 e2 0b 3c b1 83 8a 3e 2e 12 23 3c
       -0.011498913 0.008538 0.27053598 0.009953065
000080 b4 e0 cd 3a 42 7f 7c 3e eb 0f ca 3b 4f a6 94 3e
       0.0015707226 0.2465792 0.0061664484 0.29033133
000090 ad 02 5a 3c b4 9c 83 3e 73 9b 4e bb 5a 99 8d 3e
       0.013306302 0.25705492 -0.003152576 0.2765606
0000a0 7a 42 4c bc f5 07 8d 3e 32 57 92 3e 9d 05 8f 3b
       -0.012467021 0.27545133 0.2858215 0.004364683
0000b0 51 4f cc bb d9 df 3f 3c e3 1e 39 bc 5d 47 27 bc
       -0.006235041 0.011711084 -0.011298868 -0.010209885
0000c0 e1 ad 8d 3e b5 4d 6b bc 16 bc 89 bc 9e 9f 9a bc
       0.27671722 -0.0143617885 -0.01681332 -0.01887494
0000d0 5b 13 9e bb c2 b3 0b 3b eb ab dd bb aa 72 67 3c
       -0.0048240847 0.002131686 -0.006764879 0.014126459
0000e0 66 26 75 bc 97 9f 05 3c db 79 8f 3e 64 7b 90 3e
       -0.014962768 0.008155725 0.28022656 0.2821914
0000f0 40 07 5a bc f5 46 79 bb 78 ae 8f 3e e9 77 cf 3b
       -0.013307393 -0.0038036678 0.28062797 0.006331433
000100 40 6a b6 bb e7 38 37 ba 86 4c 8c bb 08 77 4d ba
       -0.005566865 -0.0006989375 -0.0042815832 -0.00078378664
000110 a5 07 87 3e 53 1b 11 3b 73 c0 8c 3e 32 1c 83 3e
       0.2637302 0.002214153 0.27490577 0.2560745
000120 5d f1 71 3e 6c e7 82 3e 05 0b 81 3e bc c0 1a 3c
       0.23627229 0.25567186 0.2520372 0.0094453655
000130 60 8b 6b bc 5d 98 70 bc 5b a4 4b bc ad a9 80 bb
       -0.014376491 -0.014684764 -0.012429322 -0.003926477
000140 86 e8 96 3e af ea b7 ba 0c bc 66 3b 54 89 37 bb
       0.29474276 -0.0014031733 0.00352073 -0.0028005438
000150 92 1a 3e 3c a5 2c 8b 3e 9f 9a 94 bb d3 9d 94 ba
       0.011603015 0.271825 -0.004535034 -0.0011338539
000160 04 6a a0 bb 46 fc 70 3e c8 48 92 3e 47 4f 1e 3c
       -0.0048954505 0.23533735 0.28571153 0.009662456
000170 a2 94 45 3c 2d bd 95 bb 11 22 85 3e 95 a3 b0 bb
       0.012059363 -0.0045696707 0.26002553 -0.0053905942
000180 f4 af 89 3e 8f 28 d3 ba c2 ce 1d 3c 88 69 52 bc
       0.26892054 -0.001611011 0.009631814 -0.012842543
000190 52 57 84 3e 7a b6 7d bc 30 38 06 bc 4c 8e 8d 3e
       0.2584787 -0.0154854 -0.008192107 0.27647626
0001a0 ee 3b 6e bc de 18 f5 bb 98 e8 10 bb a4 f8 91 3e
       -0.014540656 -0.007479771 -0.0022111293 0.2851001
0001b0 8c ec 4d 3c e6 cc 1f bb f7 2c 5d bc 2d e0 95 bc
       0.012568604 -0.0024383604 -0.01349949 -0.018295372
0001c0 72 18 6e ba 5e dd 64 3b ff df b2 3a bb c3 c7 bb
       -0.0009082622 0.0034921984 0.0013647078 -0.006096331
0001d0 8f 0b 12 3c 72 d2 92 3e 8a 0d 6d bc 69 53 91 3e
       0.008913889 0.28676182 -0.01446856 0.2838395
0001e0 88 64 8b 3e 6b c7 8b 3e 12 d1 89 3e 9d 23 2a bc
       0.27225137 0.2730058 0.2691732 -0.010384467
0001f0 40 2f 13 3c fd 35 83 3e b1 db a0 3a ca d8 f7 3b
       0.008983433 0.25627127 0.0012272504 0.007563685

fc3.weight f4 [64, 128]
000000 e1 b8 69 bc 1d 63 b3 bc 03 84 74 bc f2 1b 79 3c
       -0.01426527 -0.021897847 -0.014924052 0.015204417
000010 00 e2 0b bc 17 0d 49 bc de e8 b8 3c 96 af 81 ba
       -0.008537769 -0.012271187 0.022571977 -0.0009894248
000020 09 3a 0a 3b 46 75 16 bc cb a9 b8 ba b2 23 49 3c
       0.002109172 -0.009183234 -0.0014088688 0.012276577
000030 10 27 3e bc 68 86 a8 bc d1 a3 31 bc 15 c5 b6 3c
       -0.011605993 -0.020571902 -0.0108422795 0.022310773
000040 1b 92 88 bc 93 2a b7 bb 41 7a fa 3b 52 c5 53 bc
       -0.016671231 -0.005589792 0.0076439683 -0.012925463
000050 db a3 93 3c 43 4c df 3b 97 36 14 3b 9c 06 89 3c
       0.018022468 0.006814511 0.0022615546 0.016726784
000060 99 ee 84 3c c0 4a 09 3c 48 28 8a 3b 27 36 a8 bc
       0.016227053 0.008379638 0.0042162277 -0.020533634
000070 ac 29 44 3c 88 50 7f bc a6 6d 10 bc d4 04 27 bc
       0.011972826 -0.015583165 -0.008815205 -0.010194022
000080 3f 9a 1b bc 45 8d d0 3b f3 56 e3 ba 4c d2 aa bc
       -0.009497224 0.006364497 -0.0017344638 -0.02085223
000090 63 e4 49 bc 37 32 85 3c 4a 64 6f 3c 95 e6 91 3b
       -0.012322518 0.016259296 0.014611313 0.0044525363
0000a0 ab 24 f6 bb 2d 86 02 bc fc 00 8f bc c6 17 af 3c
       -0.0075116954 -0.00796656 -0.017456524 0.02137364
0000b0 7a 21 81 3b 4a 9d 6f bc ed ef 73 3c c9 e1 c2 bb
       0.0039407583 -0.014624903 0.014888746 -0.005947326
0000c0 7f db 56 3c 77 67 51 bb 3c f8 74 3c c8 4b 16 3c
       0.013113855 -0.003195254 0.014951762 0.009173341
0000d0 9e 41 1a bc ed 88 8a bc f4 3f 86 3c 96 fb 0b 3b
       -0.009415058 -0.016910994 0.016387917 0.0021359674
0000e0 d6 ce db 3b f8 59 83 3c f1 9b b0 39 a2 bb 33 3a
       0.0067080064 0.016034111 0.0003368552 0.00068562676
0000f0 4e 86 85 3c 6c 9c 05 bc 60 4e 89 bc 52 ed 85 3c
       0.016299393 -0.00815497 -0.016761005 0.016348515
000100 b9 2d 02 ba f0 f3 ff 3b 48 45 ee bb 4f 1c 6f bc
       -0.00049659197 0.007811062 -0.0072714426 -0.014594152
000110 58 e9 95 3a f7 ae ef 3a cc 1c 2c 3c 79 13 d8 ba
       0.001143734 0.0018286397 0.010504913 -0.0016485295
000120 66 34 80 3c da c9 a6 3b 7d 01 b7 3c ee cd e8 bb
       0.015649986 0.0050899806 0.022339577 -0.007104627
000130 f9 48 ac bc 6e cb 8c 3c e9 d4 50 3c b6 08 59 bc
       -0.02103089 0.017186847 0.012746074 -0.013246706
000140 4a 86 b3 ba 2c b5 89 3c 79 5d b1 bb f2 04 01 bc
       -0.0013696637 0.016810022 -0.005412754 -0.007874714
000150 c5 12 b3 bb 6b 7a 92 bc 69 9f 3b bc 2c f0 9f 3b
       -0.005464884 -0.017880639 -0.011451581 0.0048809256
000160 3f e2 57 39 25 fe 50 3b d4 fb f0 bb 04 15 4d 3c
       0.00020588281 0.0031889763 -0.007354239 0.012517218
000170 65 cb 08 bc f7 30 bb 3b e5 58 99 3c 91 e5 e5 ba
       -0.008349274 0.005712624 0.018719146 -0.001753973
000180 5d c0 6f 3b 50 9b be 3a 7b 6c b5 bc f3 20 fb 3b
       0.0036583163 0.0014542136 -0.022146454 0.00766384
000190 c3 27 99 bc b3 39 2f bc 8c 5f 9b bc e3 da 39 ba
       -0.018695718 -0.010694909 -0.018966459 -0.00070898066
0001a0 c6 0f 16 3c 6e 4d ac bc b9 b4 a8 bc f6 71 4f bc
       0.009159034 -0.021033015 -0.020593988 -0.012661448
0001b0 e8 b3 31 3b 20 c6 b4 bc 57 d6 59 bc 4d 10 48 bb
       0.002711529 -0.02206713 -0.0132957315 -0.0030527294
0001c0 c9 b5 be 3b 25 29 ed bb 49 88 16 bb 27 16 8e bc
       0.0058200103 -0.007237571 -0.0022969416 -0.017344547
0001d0 6d 06 9b 3c 89 94 55 3c ef 5c 63 3c 1c 90 66 ba
       0.018923962 0.013035902 0.013877138 -0.00087952777
0001e0 68 74 93 3a 0c 5b 7e 3c df b4 6f bc e8 bf 21 bc
       0.0011249902 0.015524637 -0.014630525 -0.009872414
0001f0 25 54 b4 3c c8 3a 73 bc b9 80 a4 3c be f1 36 bb
       0.02201278 -0.0148455575 0.020080911 -0.0027915086
000200 44 8c a8 bc 9a 03 78 bc 04 33 98 bc 80 ba 47 3c
       -0.020574696 -0.015137577 -0.018579014 0.012190461
000210 dd 66 52 3c 42 fe ae bc aa 47 53 3a b8 e4 95 3c
       0.012841907 -0.021361474 0.000805969 0.018297538
000220 d1 b3 93 3c 81 34 b3 3c e4 76 81 bc cf 49 a0 bc
       0.01803008 0.021875622 -0.015803762 -0.019566445
000230 52 58 be bc 76 03 c4 3b 2f ba 6e bc eb e0 93 bb
       -0.023235474 0.005981858 -0.014570757 -0.0045128963
000240 3a 8d 55 ba 2b 8e 9e bb ad b5 5b 3b f8 a6 a5 3c
       -0.00081463496 -0.004838725 0.0033525035 0.020221218
000250 e9 a8 34 bc dd ec aa 3c 26 96 ea 3b 73 d8 b1 bb
       -0.011026599 0.020864898 0.0071590124 -0.005427414
000260 9c a1 af 3c 1f 21 9a bc ec 3d 46 3c c5 3f 3d bb
       0.021439366 -0.018814621 0.012099724 -0.002887712
000270 a2 e0 73 3c 69 10 59 bc 77 83 38 3b d5 18 9b 3b
       0.0148851 -0.013248541 0.002815453 0.004733185
000280 19 e2 af 3c 20 57 1e 3c 95 79 e5 3b e2 3b 0d 3c
       0.021470116 0.009664327 0.007003019 0.008620234
000290 a5 be 94 bc f1 43 68 bc c3 18 a7 3c 29 e2 6d bc
       -0.018157313 -0.014176355 0.02039755 -0.014519253
0002a0 4f 77 1b 3b 2d 26 03 3b b7 b4 ba bc b2 8b ba 3b
       0.0023722237 0.0020011768 -0.02279125 0.0056929225
0002b0 7c 9e 0b 3c 59 93 a2 bb 75 1e d5 3b 6e 6c 73 bc
       0.008521672 -0.004961413 0.006503875 -0.014857395
0002c0 f6 8b 49 3c e7 eb 44 3c 71 82 89 bc f5 09 ad bc
       0.012301436 0.012019134 -0.016785832 -0.021122912
0002d0 af 35 7e bc d6 19 b7 3c 4c c7 3b 3c fa 1a 4f bc
       -0.015515729 0.022351187 0.01146109 -0.012640709
0002e0 10 3c 01 bc 46 08 9a bc 9f 86 a9 bb 77 d4 85 bc
       -0.007887855 -0.018802773 -0.005173519 -0.016336663
0002f0 60 aa a4 3b 25 87 39 3c 65 5a b5 bb 04 4e 30 3c
       0.005025193 0.011323725 -0.0055344575 0.010760788
000300 bb 33 5a 3c 1d c8 5f 3c fa 73 3a bc e0 58 97 3c
       0.013317998 0.013658551 -0.01138019 0.018474996
000310 f9 ae f8 bb 39 af 63 3c 51 ae 8b 3b 23 5e 8d 3c
       -0.0075892177 0.013896757 0.0042627235 0.017256802
000320 ab 66 fb bb 78 d0 95 bc ad 8e 00 3b 6d bb a8 3c
       -0.007672151 -0.018287882 0.0019616291 0.020597184
000330 73 23 75 3c c2 40 85 bc 88 c4 0e bb 33 9f 95 bc
       0.014962065 -0.01626623 -0.0021784622 -0.018264389
000340 57 8a 8e 3c 68 5e e7 b9 fe 94 2d 3c 10 37 03 3b
       0.01739995 -0.00044130092 0.010594605 0.0020021833
000350 6a d2 a6 3c 53 ef 0e 3b 17 3f 33 bc 60 ca 8f bb
       0.020364005 0.0021810129 -0.010940335 -0.0043881387
000360 9a ef 87 bc 21 40 81 3c 53 f0 d2 3b ea 5f 96 3c
       -0.016593743 0.01577765 0.0064373403 0.018356282
000370 13 02 83 3c 10 a7 11 3c eb cf 1a 3c 65 9a fe 3b
       0.0159922 0.008889928 0.009448986 0.00776987
000380 61 da 03 3c f8 08 9e bc fa b8 95 3c 3e 88 6c bc
       0.008047671 -0.019291386 0.01827668 -0.01443678
000390 1f 43 cf bb 2d fe 5d bb 4e ee 22 bc 32 dd 5a bc
       -0.00632514 -0.0033873424 -0.009944512 -0.013358401
0003a0 fe 5b 23 bc 8f 80 a6 3c bc 35 22 3c c0 be ea bb
       -0.009970663 0.020324973 0.009900507 -0.0071638525
0003b0 9c 45 37 3c 55 f2 9c bc 79 55 b5 3c 7f 28 65 bc
       0.01118603 -0.019158522 0.022135483 -0.013986706
0003c0 fd 8a 59 bb 38 54 a6 3b 2b 92 ac bc e5 68 a7 3b
       -0.0033194416 0.0050759576 -0.021065792 0.00510894
0003d0 b5 4b 63 3c 02 a0 ee ba 64 30 78 bc b4 0a 80 bc
       0.01387303 -0.0018205645 -0.015148256 -0.015630104
0003e0 f7 fd f7 3b 36 02 0e 3c aa ed c4 3b b9 11 9d 3c
       0.0075681168 0.008667519 0.006009777 0.01917349
0003f0 c7 a6 bf bb 67 e1 2c bb 48 36 71 bc fc 90 8e bb
       -0.005848739 -0.0026379467 -0.014722414 -0.0043507796

fc3.bias f4 [64]
000000 dd d4 20 bc c0 1e 48 bc 9a 80 de 3e 87 ce 8d bb
       -0.009816376 -0.012214363 0.4345749 -0.0043275985
000010 2f d8 87 3a f4 be b3 bc 60 01 81 3c df e9 e2 3e
       0.001036411 -0.02194164 0.015747726 0.44319054
000020 d7 dd df 3e d4 02 30 bc 6f 98 22 3c 20 62 e8 3e
       0.43723938 -0.010742862 0.009924038 0.45387363
000030 84 d0 62 3c 7f 52 8b bc ca ce 0f bc 94 2a cd 3e
       0.013843659 -0.01700711 -0.00877733 0.40071547
000040 1a dd e2 3e ad 9f 77 bc 9f 1a 58 bc 05 eb 8a bc
       0.44309312 -0.015113753 -0.013189941 -0.01695777
000050 68 26 66 3a e7 72 e3 3b e1 99 d5 3e 0c 83 39 bc
       0.00087795267 0.0069411877 0.41718963 -0.011322748
000060 e4 fc d8 3e 93 98 d3 3e 95 56 01 bc f5 9f dd 3e
       0.4238044 0.41327342 -0.007894178 0.432861
000070 6f e3 28 bc c7 b5 c9 ba e2 14 9c bc 2b b1 9f bc
       -0.010308131 -0.0015389257 -0.019052926 -0.01949366
000080 50 2d e4 3e 8e 9f 30 3b 94 7f c7 ba 98 4e 8d 3c
       0.4456582 0.002695057 -0.0015220516 0.01724939
000090 2b d1 e2 3e d7 99 a2 bc 74 7c d0 3e f1 35 ef 3e
       0.44300207 -0.019848747 0.4071995 0.46720842
0000a0 d3 83 ec 3e 31 16 29 bc cc 07 7d 3d f4 f8 aa 3e
       0.46194324 -0.010320232 0.061775014 0.3339306
0000b0 c9 c0 dc 3e e0 0a 56 3c 00 df ca 3e 47 a7 e4 3b
       0.43115833 0.013064116 0.3962326 0.006977949
0000c0 b0 bb 22 3c 8f ea 8d bb 21 02 d3 bb db 3c c6 3e
       0.0099324435 -0.00433094 -0.006439463 0.38718304
0000d0 02 a5 17 bc e3 40 e2 3e cc cf d9 3e 82 1f a4 bc
       -0.0092556495 0.4419013 0.4254135 -0.020034555
0000e0 83 a9 51 3c 6a 1b 19 3e b4 72 e0 3e 57 3c ed 3e
       0.012796762 0.14951864 0.43837512 0.46335098
0000f0 4c 11 ba 3e 0b 15 2d bc a9 72 0c bc 3b 2c c8 3e
       0.3634132 -0.010564099 -0.008572259 0.39096245

fc4.weight f4 [14, 64]
000000 d5 40 52 3c f6 d3 45 bc bc 7c 46 3d 68 63 98 3c
       0.01283284 -0.012074461 0.0484588 0.018602088
000010 72 b4 30 bb 8b fb b2 bb 68 af 92 bc a8 f4 3b 3c
       -0.0026963023 -0.005462115 -0.017905906 0.011471905
000020 a5 39 40 3c 1e 5f 9d bc 8d db 5b 3b fc c3 f3 3c
       0.0117324935 -0.019210394 0.003354761 0.029756539
000030 c0 3d fd bb 7a d3 f7 3c e6 11 c9 bb 4e c7 dd 3c
       -0.0077283084 0.030252207 -0.006136167 0.027072575
000040 f9 bf 42 3d 23 f7 a5 3c 07 01 ca 3b a4 44 06 3c
       0.04754636 0.020259446 0.0061646733 0.008195076
000050 21 b0 f2 3c 3b e5 ab bc 74 27 0c 3c 55 f4 a6 3b
       0.029625 -0.020983329 0.008554328 0.0050950446
000060 5b b3 52 bb 45 10 14 bc 95 f6 6a 3c 81 cf 16 3d
       -0.0032150361 -0.009037082 0.014341016 0.036818985
000070 48 9e 45 3c b8 dc 15 3c 6e 3c 2b 3c 2a 0f 9a 3c
       0.012061663 0.009146862 0.010451419 0.018806059
000080 72 02 23 3d bd 28 8c bc 8e 75 04 3c 66 d3 b4 39
       0.039797254 -0.01710927 0.008084668 0.0003448978
000090 c7 e2 80 3c 43 e5 0a 3c 88 ff 55 3d d7 37 21 3d
       0.015733136 0.008477512 0.052245647 0.039359894
0000a0 52 2f 36 3d 6b 5e b5 bb c8 c1 2e bd 79 1f 86 3c
       0.044478722 -0.005534937 -0.042665273 0.01637243
0000b0 a4 7d 10 bb 12 f8 5f 3b a1 f9 25 3d cf 9f eb bc
       -0.0022047544 0.003417496 0.040521268 -0.028762726
0000c0 f2 a9 02 3d c1 b9 d7 3c e9 b0 8d 3b 4e 67 b0 bb
       0.031900354 0.026333692 0.004324068 -0.0053834086
0000d0 c8 b9 ae 3c b8 6a 41 bb 9d cb 20 3d c1 d0 1b 3c
       0.021328822 -0.0029513072 0.03925668 0.00951022
0000e0 5c 9f 8d 3c 33 bb 0a bd cf 23 12 3c 7a f5 1d 3d
       0.017287903 -0.033869933 0.00891967 0.038564183
0000f0 35 df 47 3c 74 fe ac 3c 2b 2c ee bc 77 b2 03 3d
       0.012199213 0.021117426 -0.029073795 0.03215262
000100 95 df fa bc a6 fa c1 bc 48 b7 91 3d a5 8a d7 3c
       -0.03062419 -0.023679089 0.07115036 0.026311228
000110 bd 57 83 3c 21 ed ec 3c 8f b5 cd 3b 48 c2 aa 3d
       0.016033048 0.028921666 0.006277747 0.083378375
000120 8e 66 ce 3d 86 33 df 3c 0f 20 88 bc dc 9e cd 3d
       0.100781545 0.027246248 -0.01661685 0.10040066
000130 ff b6 15 bc 81 04 36 bb 50 07 ad 3c e8 ea 90 3d
       -0.009137868 -0.002777368 0.021121651 0.07076055
000140 be 29 75 3d 49 84 af 3c ae 54 b2 bc ba fd 2b 3c
       0.05985426 0.021425383 -0.021768894 0.010497505
000150 c2 de 16 3a f5 c5 5f bc e0 83 44 3d f6 5e e4 bc
       0.00057552394 -0.0136580365 0.04797733 -0.027877312
000160 2b c7 95 3d 8e cc 92 3d d3 0f de 3b 8b 9e dd 3d
       0.07313379 0.07167922 0.0067767887 0.10821255
000170 d3 8b 53 3b 64 6d bf 3a 21 48 d5 3b 8a 1a 3e bc
       0.0032279387 0.0014604745 0.0065088426 -0.011603007
000180 bb d5 9c 3d 2c 33 e2 bc 97 60 d5 3c a1 f8 c7 3b
       0.07657953 -0.027612291 0.026047034 0.006102637
000190 3d 7b 73 3d f1 5d 82 bc f1 b1 4a 3d 09 09 c3 3d
       0.0594437 -0.015913935 0.049486104 0.09523208
0001a0 67 4e 05 3e c8 b6 b9 bb bc 29 64 bc 5a 6e 09 3d
       0.1301819 -0.005667541 -0.013925966 0.033552505
0001b0 a7 df 8f 3d 79 38 b5 3c 0b 47 11 3d 22 5a b9 bb
       0.0702508 0.022121655 0.035468142 -0.0056564966
0001c0 4a 6e 70 bc 94 2c 2f bb 25 8a 71 b7 fa 31 00 3d
       -0.014674732 -0.0026729451 -1.4396884e-05 0.03129766
0001d0 b0 dc ba bc 67 1b b1 3d 77 89 9c 3d cb 1d 5c bb
       -0.02281031 0.08647805 0.07643407 -0.0033587094
0001e0 78 9b ab 3c 7d 09 6d bd 19 bc 6c 3d 24 b5 9f 3d
       0.020948157 -0.057870377 0.05779657 0.07798222
0001f0 ad 9e 99 3c f8 8a f4 3c 44 e8 f4 3c 7b 99 9c 3d
       0.01875242 0.029851422 0.02989591 0.076464616
000200 ee 95 cf bc dd 33 b3 bc ca 8f 07 3e e3 31 91 bc
       -0.025340047 -0.021875316 0.13238445 -0.017723983
000210 84 cd b6 bc 47 48 e7 bb 10 a1 9e bc 71 37 f6 3d
       -0.022314794 -0.0070581767 -0.01936391 0.12022293
000220 c4 c1 c4 3d 7e 38 07 3c ce 83 06 bc 58 ed cb 3d
       0.0960727 0.008253215 -0.008210136 0.09957379
000230 8e cc 47 3c 43 c5 fe 3c 4d 79 39 3c bd eb d0 3d
       0.012194766 0.031099921 0.011320424 0.102012135
000240 0b 08 ef 3d b1 36 ec 3c 96 94 ec bb 4d c3 b0 bc
       0.11671456 0.028834673 -0.0072198613 -0.021577502
000250 52 dd 6d bc 76 66 80 bc 39 81 04 3e 30 b5 ce 3b
       -0.014518099 -0.015673857 0.1293992 0.0063082203
000260 12 95 eb 3d 81 d9 97 3d 86 44 01 3d 39 00 e8 3d
       0.11503042 0.074145325 0.03155949 0.113281675
000270 2a ec a9 3c c2 c5 8a bc db ed 69 3b 48 74 e1 3c
       0.020742495 -0.016940001 0.0035694751 0.027521268
000280 09 59 f5 3d a1 e9 67 bc 09 b1 37 3c c8 77 82 bb
       0.11979873 -0.014154823 0.011211642 -0.003981564
000290 86 43 e0 3d 53 81 87 3c 41 16 ee 3d a2 19 d9 3d
       0.10950379 0.016541159 0.11625338 0.10600592
0002a0 6f f6 1e 3e 92 39 24 bc 8e 26 89 bc b0 bd 9d 3d
       0.15523694 -0.010023491 -0.016742017 0.07702196
0002b0 7d 42 a6 3d 48 7e 07 3d 93 fb 96 3d 78 49 23 3b
       0.081181504 0.033079416 0.07372203 0.0024915617
0002c0 da ac b1 bb 60 be 21 bc f7 1b 4d bb 9b ad 96 3d
       -0.005422217 -0.009872049 -0.0031297186 0.07357331
0002d0 ae 00 d1 3c 74 9b ad 3d bd 28 0e 3e 2e 65 21 3c
       0.02551302 0.08476916 0.13882728 0.009850783
0002e0 1e 72 b1 ba 07 ff 88 bc 31 9a e2 3d 57 48 03 3e
       -0.0013538038 -0.016723169 0.11064566 0.12820564
0002f0 1a 7e b8 3d e7 1c 59 3c fa 52 8d bc ac 15 da 3d
       0.09008427 0.01325152 -0.01725148 0.10648665
000300 f6 a0 21 bc 72 af e5 3b e6 1f 67 3e af 93 55 3a
       -0.009865036 0.00700944 0.22570762 0.0008147312
000310 de db 0b bc b7 5b b3 bc 11 82 25 bb 3b f0 44 3e
       -0.008536307 -0.021894319 -0.0025254528 0.19232266
000320 a3 02 42 3e 7f 16 dd 3c e8 f9 e8 3c f4 64 63 3e
       0.18946318 0.026988266 0.028439477 0.2220648
000330 dd 8e 90 bc 13 09 06 3c fd 47 d6 bc 28 78 30 3e
       -0.017646248 0.008180874 -0.026157374 0.17233336
000340 15 c6 53 3e df 60 04 bc 28 70 cd 3c 5a 43 b1 3c
       0.20681031 -0.0080797365 0.025077894 0.021638561
000350 e6 e7 0b bc 26 14 95 bc 33 df 59 3e 4f c8 00 3b
       -0.008539176 -0.018198084 0.2127655 0.0019650643
000360 7c d9 38 3e a3 03 47 3e f1 38 9c bb b1 b6 66 3e
       0.18051714 0.19434981 -0.00476753 0.22530629
000370 5f f3 51 3b 65 77 cf 3b 49 e8 d2 bc e1 a1 d4 bc
       0.003203593 0.0063313716 -0.025745528 -0.025956096
000380 59 7a 58 3e 0b 26 60 3c a5 aa ba bc 12 35 ab bc
       0.21140422 0.013680945 -0.022786448 -0.02089933
000390 dd 1c 65 3e 24 3a 10 bc cf e0 4e 3e b5 ad 61 3e
       0.22374292 -0.008802924 0.20202945 0.2203892
0003a0 e1 56 6f 3e f1 5a c3 bc 40 76 85 bb 47 37 28 3e
       0.23372985 -0.023847075 -0.0040729344 0.16427337
0003b0 67 58 44 3e 5c 17 81 bc 80 44 3d 3e f7 e6 89 bc
       0.19174348 -0.015758209 0.18483162 -0.016833765
0003c0 98 15 c4 bc 38 07 bb 3c 35 2c 2a 3b b9 0a 30 3e
       -0.023936078 0.02283059 0.002596629 0.1719159
0003d0 69 01 d5 3c f3 be 2a 3e 8c 29 51 3e 4a bf 08 3c
       0.026001649 0.16674404 0.20426005 0.008346388
0003e0 a0 9a ab ba 70 f5 3b 3c f9 6b 4a 3e e1 b3 6f 3e
       -0.0013092346 0.011472091 0.19767751 0.23408462
0003f0 a2 1a 43 3e 50 a4 ef ba 69 b1 ed bb aa f0 26 3e
       0.19053128 -0.0018283222 -0.007253815 0.16302744

fc4.bias f4 [14]
000000 99 ad 62 3e bf 12 cf 3e 6d 61 cf 3e 75 ec e5 3e
       0.22136535 0.4044399 0.40504017 0.44906965
000010 73 96 f0 3e 52 f6 e8 3e ca 56 10 3f b7 dc 18 3f
       0.46989784 0.45500427 0.5638243 0.59711784
000020 a2 20 f7 3e 85 7e ad 3e dc 92 1f 3f aa b3 fd 3e
       0.48267084 0.3388559 0.62333465 0.49551135
000030 ac 64 cb 3e b7 9d 24 3f
       0.39725244 0.64303154
