EMG/models/03_CNN_sequential/CNN_seq.pth (torch, 291896 bytes, 10 tensors)

conv1.weight f4 [64, 12, 5]
0.10748045 0.11404581 -0.098942846 0.11895825 -0.06818608 0.04485629 0.0018323845 0.060563996
0.10026726 -0.107975155 -0.12812859 0.0817337 0.09521401 -0.066641 0.04513577 0.02248447
-0.027686622 -0.06889921 0.025140459 -0.049573455 0.018289011 0.08335861 -0.0041751205 -0.095795855
-0.12513538 -0.0060917973 -0.016402967 -0.112073116 -0.043110725 -0.008901499 -0.112247616 -0.12103859
-0.10985684 0.023370435 -0.046762425 0.051159646 -0.072718166 0.07339494 -0.042461902 -0.1074294
0.010296892 0.007532524 -0.07866166 0.109386936 -0.10593789 -0.106895156 0.059022527 0.0084679825
-0.06488167 -0.0130681805 -0.04105218 0.08574426 0.11507866 -0.046630718 0.10932959 -0.0022408934
-0.014774728 0.07565215 0.12179517 -0.11695399 0.11995121 0.025272576 0.051520605 0.047984645
-0.108409524 0.091841236 -0.07875216 -0.096453615 -0.046763737 0.05474883 0.124393314 0.008849995
-0.08046324 -0.0021357075 -0.09327465 0.028174454 -0.009751467 -0.08704415 -0.10606701 0.024473336
0.03512364 -0.12630555 -0.010730708 0.026792442 -0.037666775 -0.061582744 -0.1055482 -0.067416415
-0.06255278 0.023379905 -0.1193635 0.061585624 -0.12114734 -0.06502462 -0.055029757 0.02405112
-0.007853728 -0.09879947 0.08521527 0.027155183 0.024176229 0.085409075 0.062297575 0.12025858
0.12676077 0.0153019205 0.12580404 -0.0143231675 0.03288716 -0.08500603 -0.013058472 -0.11014279
-0.031523503 -0.03253163 -0.07683709 -0.013019848 -0.013770364 -0.049251854 -0.05367796 -0.05272051
0.07978166 0.123542815 0.121871114 0.0009104154 -0.039123524 -0.027487392 0.07359623 0.094419554
0.014904219 -0.05614311 -0.117796786 0.101061985 0.12591827 0.015013979 -0.017186105 0.07078208
-0.021916509 0.051057328 0.05591916 0.046998236 0.02041404 -0.11851902 -0.035676222 -0.042746134
0.028148716 0.02915146 -0.06706121 0.11254453 0.10384075 -0.12683521 -0.1283182 -0.038927812
0.054888796 0.02335802 -0.092143275 0.0982189 0.094498046 -0.11543771 0.08100847 0.053164896
0.008094798 0.013859832 -0.058482755 0.014630704 0.062174365 -0.08886241 0.115235955 0.034907278
-0.09026283 0.068517685 0.088230364 -0.11843255 -0.034281682 0.028459715 -0.056019235 -0.0512735
-0.018551363 0.04231019 0.09800384 0.0032996552 0.0044928207 -0.043911 0.12806438 -0.03295947
-0.08116889 -0.054829247 -0.08467633 0.020486642 0.03031872 -0.040112898 -0.03771848 0.058902126
0.0020114891 -0.12367242 0.04087668 -0.097174086 0.103781566 -0.038183745 0.009087684 0.06883361
0.06359868 0.0024300043 -0.058782723 -0.08784293 -0.07190567 -0.040560044 0.12098497 -0.06250827
-0.09375682 0.02388793 0.03039088 0.004245039 -0.09336184 -0.004345645 -0.12310393 0.052477673
-0.11712647 0.01940115 -0.014501617 0.08087794 -0.08503193 0.09990392 -0.10904012 0.036111966
0.1002869 -0.09529757 -0.03685285 0.049414683 -0.09043706 0.06531503 0.08895766 0.0034597607
0.11162805 -0.090130486 0.10024447 0.054373365 -0.09386146 0.065913595 0.0019390328 0.058305036
-0.1190474 0.046717323 0.100348346 -0.10589412 0.05836562 -0.11847654 -0.07525851 0.07620642
0.063376576 -0.014044921 0.056174923 0.050622817 0.06535177 -0.09058378 -0.0050880373 -0.06925924
00000000: b61e dc3d da90 e93d 8ca2 cabd 62a0 f33d
00000010: 25a5 8bbd 3bbb 373d 9f2c f03a f411 783d
00000020: ec58 cd3d 1422 ddbd 2434 03be 0064 a73d
00000030: 90ff c23d 147b 88bd 49e0 383d 5a31 b83c
00000040: 0ecf e2bc 071b 8dbd 5df3 cd3c 890d 4bbd
00000050: d6d2 953c ebb7 aa3d 73cf 88bb 9e30 c4bd
00000060: 7d23 00be b39d c7bb 845f 86bc 9786 e5bd
00000070: df94 30bd 98d7 11bc 14e2 e5bd 15e3 f7bd
00000080: 9ffc e0bd 5b73 bf3c f589 3fbd c78c 513d
00000090: 43ed 94bd 1650 963d 88ec 2dbd f203 dcbd
000000a0: 4cb4 283c 64d3 f63b 5d19 a1bd 4206 e03d
000000b0: f7f5 d8bd d9eb dabd 9bc1 713d 4bbd 0a3c
000000c0: aee0 84bd ec1b 56bc 5526 28bd b09a af3d
000000d0: 5cae eb3d daff 3ebd 31e8 df3d f4db 12bb
000000e0: b311 72bc 84ef 9a3d bf6f f93d 9385 efbd
000000f0: fba8 f53d 6f08 cf3c 4507 533d 8c8b 443d
00000100: d005 debd 4217 bc3d d048 a1bd 7989 c5bd
00000110: 558b 3fbd 4f40 603d ecc1 fe3d 92ff 103c
00000120: e9c9 a4bd 3af7 0bbb c806 bfbd 1dce e63c
00000130: 9ec4 1fbc 3444 b2bd a939 d9bd 4e7c c83c
00000140: cedd 0f3d 3e56 01be dacf 2fbc d37b db3c
00000150: 7a48 1abd 303e 7cbd a829 d8bd 9e11 8abd
00000160: ac1b 80bd 3787 bf3c da74 f4bd 3541 7c3d
00000170: 191c f8bd a12b 85bd e266 61bd db06 c53c
00000180: ecac 00bc 6057 cabd 5885 ae3d 8c74 de3c
00000190: 3a0d c63c f4ea ae3d be2b 7f3d 214a f63d
000001a0: 93cd 013e e8b4 7a3c c6d2 003e b8ab 6abc
000001b0: b0b4 063d a417 aebd 34f3 55bc 8b92 e1bd
000001c0: ca1e 01bd e33f 05bd c45c 9dbd 3351 55bc
000001d0: 189d 61bc 50bc 49bd 6cdd 5bbd 76f1 57bd
000001e0: 9164 a33d 0404 fd3d 9097 f93d f1a8 6e3a
000001f0: fd3f 20bd 3d2d e1bc 9fb9 963d 0a5f c13d
00000200: d330 743c 51f6 65bd 713f f1bd 96f9 ce3d
00000210: b8f0 003e 31fd 753c e0c9 8cbc 32f6 903d
00000220: 408a b3bc 7d21 513d 7d0b 653d 3981 403d
00000230: 583b a73c 1aba f2bd 3b21 12bd 9216 2fbd
00000240: 2398 e63c 0bcf ee3c 6357 89bd bf7d e63d
00000250: 76aa d43d 17e1 01be d965 03be c572 1fbd
00000260: 13d3 603d 5159 bf3c 9db5 bcbd fe26 c93d
00000270: 3188 c13d 9b6a ecbd c5e7 a53d 6fc3 593d
00000280: 0ba0 043c 5914 633c 9d8b 6fbd 9fb5 6f3c
00000290: 8caa 7e3d 7ffd b5bd d400 ec3d effa 0e3d
000002a0: b8db b8bd 0053 8c3d 1fb2 b43d c48c f2bd
000002b0: f36a 0cbd 5924 e93c 6d74 65bd 2904 52bd
000002c0: 07f9 97bc 734d 2d3d 3db6 c83d 073f 583b
000002d0: 8338 933b 05dc 33bd 4f23 033e 8200 07bd
000002e0: e03b a6bd a294 60bd c96a adbd 9ad3 a73c
000002f0: f75e f83c 6c4d 24bd b17e 1abd 5b43 713d
00000300: 30d3 033b f747 fdbd 4e6e 273d 3503 c7bd
00000310: 6e8b d43d 8f66 1cbd 82e4 143c a3f8 8c3d
00000320: 0640 823d b540 1f3b 27c6 70bd fee6 b3bd
00000330: 4843 93bd 4a22 26bd f8c6 f73d 5604 80bd
00000340: 9303 c0bd 9fb0 c33c 4bf6 f83c f819 8b3b
00000350: 7e34 bfbd ea65 8ebb ea1d fcbd d4f2 563d
00000360: 01e0 efbd 29ef 9e3c 3198 6dbc 55a3 a53d
00000370: 3825 aebd 6d9a cc3d 6d50 dfbd 24ea 133d
00000380: 3863 cd3d 5f2b c3bd 04f3 16bd 0d67 4a3d
00000390: 1137 b9bd e3c3 853d 6f2f b63d 27bd 623b
000003a0: 3f9d e43d 5596 b8bd f94c cd3d 9bb6 5e3d
000003b0: 703a c0bd b5fd 863d 2527 fe3a 43d1 6e3d
000003c0: 20cf f3bd aa5a 3f3d 6f83 cd3d 04df d8bd
000003d0: ca10 6f3d d4a3 f2bd 2221 9abd 1d12 9c3d
000003e0: 94cb 813d ab1c 66bc ad17 663d df59 4f3d
000003f0: 26d7 853d fd83 b9bd 8db9 a6bb cad7 8dbd

conv1.bias f4 [64]
0.043689925 0.025810655 -0.08325751 -0.13535142 0.03082253 -0.1132754 0.11278508 -0.027892964
0.031093046 0.019085411 0.03853696 -0.100776814 0.005184553 0.1123385 -0.11098181 -0.107814476
-0.025380334 0.05952766 0.05528082 0.06955869 0.10094629 0.034426723 -0.026827468 -0.028753946
0.036239665 -0.08023113 -0.017470617 -0.111138694 0.03757811 0.0070186136 -0.10138252 0.103554584
-0.044157993 -0.07477577 0.018523239 0.119727895 0.13221624 -0.029095573 -0.054718643 0.042375486
0.01600899 -0.050115068 0.119295545 0.058536664 -0.021974107 0.05480957 0.049253747 -0.012206211
-0.06491481 0.08025065 0.0070389677 0.069895595 -0.048961066 0.10291572 -0.09163868 -0.057970446
-0.053425923 0.096512005 -0.11436424 0.03650467 -0.021222474 0.09499264 0.010943495 -0.056210596
00000000: 35f4 323d de70 d33c ea82 aabd 9099 0abe
00000010: 887f fc3c effc e7bd ddfb e63d c97f e4bc
00000020: d8b6 fe3c 0259 9c3c eed8 1d3d 1364 cebd
00000030: 2fe3 a93b ba11 e63d 6e4a e3bd d6cd dcbd
00000040: 6bea cfbc 47d3 733d 246e 623d c974 8e3d
00000050: eebc ce3d 0903 0d3d 47c5 dbbc 658d ebbc
00000060: 0b70 143d 3850 a4bd 8a1e 8fbc af9c e3bd
00000070: 81eb 193d 66fc e53b a3a1 cfbd 6d14 d43d
00000080: 03df 34bd 0a24 99bd 0cbe 973c e633 f53d
00000090: b263 073e d759 eebc a820 60bd eb91 2d3d
000000a0: 4925 833c 7545 4dbd 3951 f43d 24c4 6f3d
000000b0: 0b03 b4bc 0080 603d 4cbe 493d 8ffc 47bc
000000c0: 0ef2 84bd 745a a43d 24a7 e63b 6c25 8f3d
000000d0: 668b 48bd 7ac5 d23d 0fad bbbd 6b72 6dbd
000000e0: 24d5 5abd 16a8 c53d cc37 eabd ec85 153d
000000f0: c1da adbc 808b c23d 584c 333c 153d 66bd

conv2.weight f4 [128, 64, 5]
0.054058295 0.0030089454 0.01927124 -0.024507446 0.018882977 -0.052306607 0.0125161605 0.018311014
-0.03270343 0.007310342 -0.005892099 0.03174663 -0.02611176 -0.043859422 -0.0333155 0.044145975
-0.0063795126 0.02267128 -0.034767628 -0.016158966 0.003682999 0.029158492 0.0060132477 0.050903086
0.04293257 -0.0024231237 -0.022403235 -0.018914215 -0.0008839283 -0.050928526 0.043613464 0.0121355755
0.01943594 0.023701666 0.031990606 -0.021600612 0.01513548 0.03811634 -0.030374914 0.0023143722
0.0143977925 -0.048340507 0.01928145 -0.021598248 -0.014531172 0.052139904 -0.0042854957 -0.023957426
-0.008670176 -0.014628694 0.047753185 0.017268537 -0.022176227 0.0045620613 0.038584374 0.0058870413
0.025551097 0.054642808 0.013012294 0.03380576 0.025214199 0.037771124 0.050725814 0.033544548
-0.03230821 -0.016763028 -0.052637387 0.009588777 0.0020902262 0.038538024 0.046362095 -0.010425708
-0.03041031 0.019861959 -0.014913575 -0.016623843 0.019743262 0.018448934 0.016648382 -0.03979317
0.00251858 -0.0039868206 -0.04920614 0.0018497922 -0.0060354266 0.023413075 -0.011164732 -0.0013255413
-0.033269443 0.017392147 -0.0032279831 0.053514518 -0.027779728 0.008800708 -0.045317546 0.014690181
-0.024284085 -0.010303419 0.006225025 -0.04910687 0.045488395 -0.013912803 -0.017240882 0.0014434617
-0.05113932 0.05294366 -0.026379285 0.0017521004 -0.032295942 0.038213406 -0.039381474 0.043035008
0.048755534 -0.02108425 -0.0041086213 0.012010886 -0.021761915 -0.035056885 0.05231656 0.036222342
-0.043697596 0.026809603 -0.057074804 0.040664848 0.017695732 -0.05290421 -0.038121436 -0.005370639
0.0450252 -0.0099819265 0.04230744 -0.04597036 -0.052026894 0.01901671 0.042402953 -0.040460907
0.04311613 -0.047536146 -0.05138364 0.0378534 -0.044494685 -0.04557088 0.0045324615 0.0066481763
-0.02697771 -0.026706548 0.032539297 0.023535486 -0.04625655 -0.0016728117 0.055538252 -0.02493812
-0.029765803 0.011156949 0.022242691 -0.01679889 -0.034200963 0.002378724 -0.0065498184 0.046504702
0.02668946 -0.013421115 -0.0014876036 0.029640768 0.044176534 0.0029922077 0.051322546 0.009260247
-0.05412154 -0.028578209 0.043507148 -0.04228612 0.0042674066 0.045422945 -0.016166754 -0.007935165
0.04828497 0.008711612 0.008419839 -0.032976177 0.013392779 0.011690457 0.027652664 -0.038826443
0.012608434 0.0012977284 0.023965204 0.026971025 0.010929152 0.051211745 -0.025141593 -0.0048208325
0.043036897 -0.0443845 -0.04078825 -0.042121526 -0.023611099 0.041687008 -0.056098588 -9.446874e-05
0.0019310483 -0.053499103 0.054444723 0.026742123 0.05225519 -0.05415982 -0.021248214 0.012548784
0.034640267 0.044554718 0.022457335 0.0065143313 0.0024643547 0.040993728 -0.0051085996 0.019172505
-0.007045228 -0.031931624 -0.04908421 0.048490494 -0.022283778 -0.023030933 0.010836323 0.04026837
0.021788664 -0.0049727857 -0.012650305 -0.04661516 -0.008842401 0.012312281 0.01277808 0.049463402
-0.039997786 0.029100293 -0.0148021495 0.02244763 0.050644696 -0.042176504 0.04101329 0.025802972
-0.018054532 -0.0367748 -0.04509482 0.0020137858 -0.02353826 0.036780678 0.026374005 0.05032678
-0.04592261 0.047068622 -0.0060003116 0.005514913 0.03998 0.021094805 -0.032973822 0.045250062
00000000: 3b6c 5d3d ba31 453b b8de 9d3c d7c3 c8bc
00000010: 79b0 9a3c 743f 56bd 9510 4d3c fb00 963c
00000020: 08f4 05bd 988b ef3b 8212 c1bb c108 023d
00000030: 54e8 d5bc f0a5 33bd d575 08bd 69d2 343d
00000040: 3b0b d1bb 1fb9 b93c 8068 0ebd cf5f 84bc
00000050: 785e 713b cadd ee3c c70a c53b c17f 503d
00000060: 10da 2f3d 45cd 1ebb fd86 b7bc fcf1 9abc
00000070: 6db7 67ba 6e9a 50bd 08a4 323d 4bd4 463c
00000080: 1f38 9f3c ff29 c23c 9508 033d c4f3 b0bc
00000090: cefa 773c e11f 1c3d d0d4 f8bc b9ac 173b
000000a0: b8e4 6b3c b200 46bd 22f4 9d3c cfee b0bc
000000b0: 2714 6ebc a790 553d 586d 8cbb 5d42 c4bc
000000c0: 5b0d 0ebc 31ad 6fbc d898 433d bf76 8d3c
000000d0: ebaa b5bc 587d 953b a60a 1e3d 15e8 c03b
000000e0: 8950 d13c 23d1 5f3d 8431 553c e977 0a3d
000000f0: 028e ce3c e5b5 1a3d dfc5 4f3d 0266 093d
00000100: 9d55 04bd 9e52 89bc 4d9a 57bd 3f1a 1d3c
00000110: 2dfc 083b 0cda 1d3d 2ee6 3d3d 97d0 2abc
00000120: 0b1f f9bc 8cb5 a23c 1158 74bc ba2e 88bc
00000130: 9fbc a13c 3822 973c 3062 883c 2afe 22bd
00000140: c30e 253b e0a3 82bb 618c 49bd ba74 f23a
00000150: d4c4 c5bb c7cc bf3c 48ec 36bc c9bd adba
00000160: 8a45 08bd fa79 8e3c 928c 53bb 0a32 5b3d
00000170: 5092 e3bc d830 103c e49e 39bd 16af 703c
00000180: 6bef c6bc accf 28bc 4bfb cb3b 4924 49bd
00000190: 0a52 3a3d 86f2 63bc c03c 8dbc 8a32 bd3a
000001a0: 7777 51bd 74db 583d 5f19 d8bc bca6 e53a
000001b0: c048 04bd a985 1c3d 784e 21bd 7a45 303d
000001c0: e2b3 473d e1b8 acbc 9da1 86bb 4fc9 443c
000001d0: 0b46 b2bc cf97 0fbd e449 563d e15d 143d
000001e0: 40fc 32bd d09f db3c 45c7 69bd 2f90 263d
000001f0: a4f6 903c 16b2 58bd 3925 1cbd 2ffc afbb
00000200: 586c 383d 3c8b 23bc 914a 2d3d 6b4b 3cbd
00000210: 271a 55bd eec8 9b3c b8ae 2d3d 56ba 25bd
00000220: 8a9a 303d 43b5 42bd a777 52bd 2b0c 1b3d
00000230: 0f40 36bd 88a8 3abd 0b85 943b f2d8 d93b
00000240: 5c00 ddbc b1c7 dabc ed47 053d 7ecd c03c
00000250: 8277 3dbd 3f42 dbba 147c 633d 074b ccbc
00000260: 6ad7 f3bc a3cb 363c 4e36 b63c d39d 89bc
00000270: 4f16 0cbd 5ee4 1b3b dc9f d6bb b77b 3e3d
00000280: dba3 da3c 3de4 5bbc b2fb c2ba 32d1 f23c
00000290: 74f2 343d ea18 443b 9737 523d 4bb8 173c
000002a0: 8cae 5dbd d91c eabc 8d34 323d 3634 2dbd
000002b0: 9ad5 8b3b 690d 3a3d 2470 84bc 7f02 02bc
000002c0: 76c6 453d 26bb 0e3c 5df3 093c 0712 07bd
000002d0: 636d 5b3c 5589 3f3c d787 e23c 7a08 1fbd
000002e0: 9b93 4e3c 8a18 aa3a ad52 c43c 57f2 dc3c
000002f0: 3010 333c 68c3 513d bef5 cdbc 13f8 9dbb
00000300: 7547 303d 85cc 35bd 9411 27bd 9f87 2cbd
00000310: 106c c1bc ffbf 2a3d a2c7 65bd 851d c6b8
00000320: 3b1b fd3a e021 5bbd 6e01 5f3d 4c12 db3c
00000330: 8a09 563d b0d6 5dbd bc10 aebc 6a99 4d3c
00000340: f4e2 0d3d 027f 363d 72f8 b73c 2c76 d53b
00000350: 0381 213b 0ae9 273d 0a66 a7bb a80f 9d3c
00000360: a8db e6bb bcca 02bd 860c 49bd f89d 463d
00000370: 788c b6bc 5eab bcbc d58a 313c 72f0 243d
00000380: 247e b23c c0f2 a2bb 3a43 4fbc 8aef 3ebd
00000390: b8df 10bc 73b9 493c 275b 513c 239a 4a3d
000003a0: b8d4 23bd bd63 ee3c b784 72bc 18e4 b73c
000003b0: d070 4f3d 45c1 2cbd 8dfd 273d c160 d33c
000003c0: 19e7 93bc 2ca1 16bd 59b5 38bd b8f9 033b
000003d0: 4fd3 c0bc 56a7 163d 4c0e d83c 7423 4e3d
000003e0: 5919 3cbd 07cb 403d 439e c4bb 71b6 b43b
000003f0: 12c2 233d 03cf ac3c 8f0f 07bd 2158 393d

conv2.bias f4 [128]
0.0121874325 0.010143903 -0.043652207 -0.00032860492 0.011883696 -0.015340823 0.009791779 -0.0122249015
-0.04102737 -0.05228141 -0.009534582 -0.018716374 0.009253581 -0.059544683 0.043697592 0.047715455
1.858365e-05 -0.026057579 0.034360595 -0.042010006 0.056689583 0.030319912 -0.0077065285 0.015566691
-0.014067923 0.026513878 -0.03318314 0.041225206 -0.028787369 0.018229155 0.02053532 -0.020592803
0.055525903 -0.0061355773 0.013760695 0.019204529 -0.050912295 -0.06045459 -0.046722766 0.040187605
-0.017092114 0.046279933 0.04248003 -0.04138393 -0.03472691 -0.0055989735 0.01914586 -0.0049350364
-0.029726852 0.029329758 -0.039609704 -0.013635925 0.026770635 0.01904488 0.026169676 0.034430668
-0.0143607855 -0.030707017 0.05653101 -0.03734584 0.008320793 0.017092641 0.023428855 0.036650952
-0.046198852 -0.025423221 0.05081128 -0.057033688 -0.04326991 -0.029756706 0.03745054 -0.033360448
0.03984247 -0.041355424 -0.053923804 0.047585484 -0.0035450903 -0.008296979 0.00384461 -0.0027492773
-0.052013885 -0.027377801 -0.014711808 0.01987787 -0.008915502 -0.036450677 -0.0077762525 0.005443179
-0.03324391 0.05807649 -0.0068432046 -0.031897407 0.027553407 0.016483456 0.056986894 0.03760537
-0.05178253 0.014047766 -0.021520684 -0.01779823 0.03623112 0.048796207 0.003467225 0.0325783
-0.023070408 0.026182832 -0.022155259 -0.023480345 -0.040775552 -0.0018451392 0.03940275 -0.018904258
-0.023189826 -0.027823081 0.017667193 0.023581648 0.059448108 0.052157056 -0.03299149 0.014114501
0.039946042 -0.030103542 0.0047173747 -0.02083415 -0.0050370153 0.0126429545 0.0045482707 -0.018757125
00000000: ccad 473c 9d32 263c a8cc 32bd 9b48 acb9
00000010: d5b3 423c 1358 7bbc b36d 203c f44a 48bc
00000020: 510c 28bd 0825 56bd ef36 1cbc 1553 99bc
00000030: 559c 173c 20e5 73bd 3ffc 323d 4871 433d
00000040: 16e4 9b37 b476 d5bc b2bd 0c3d af12 2cbd
00000050: 5633 683d 7761 f83c 0c87 fcbb 6f0b 7f3c
00000060: 257d 66bc a233 d93c 0beb 07bd c3db 283d
00000070: 7dd3 ebbc 4f55 953c b039 a83c 3db2 a8bc
00000080: 216f 633d f40c c9bb 8a74 613c d152 9d3c
00000090: 6989 50bd 3b9f 77bd 5f60 3fbd c29b 243d
000000a0: c304 8cbc 0790 3d3d 8aff 2d3d 3282 29bd
000000b0: ce3d 0ebd 9877 b7bb c7d7 9c3c 16b6 a1bb
000000c0: ba85 f3bc f644 f03c c93d 22bd 3769 5fbc
000000d0: 174e db3c 0204 9c3c ca61 d63c 2c07 0d3d
000000e0: 8049 6bbc 488d fbbc 0f8d 673d f4f7 18bd
000000f0: ef53 083c de05 8c3c dfed bf3c 4f1f 163d
00000100: 023b 3dbd 5c44 d0bc 7d1f 503d 289c 69bd
00000110: ca3b 31bd 56c4 f3bc bd65 193d f7a4 08bd
00000120: dc31 233d 4e64 29bd 35df 5cbd ffe8 423d
00000130: bf54 68bb 0df0 07bc daf5 7b3b 382d 34bb
00000140: 830c 55bd 6947 e0bc cc09 71bc ead6 a23c
00000150: 5312 12bc 4e4d 15bd efcf febb b25c b23b
00000160: c42a 08bd 9de1 6d3d f63c e0bb dba6 02bd
00000170: afb7 e13c 5008 873c 176b 693d 1708 1a3d
00000180: eb19 54bd 9a28 663c 254c b0bc 98cd 91bc
00000190: 1567 143d 88de 473d 623a 633b d370 053d
000001a0: 27fe bcbc 617d d63c f27e b5bc da59 c0bc
000001b0: 4404 27bd 99d8 f1ba c764 213d 1add 9abc
000001c0: 97f8 bdbc 3bed e3bc caba 903c 4d2e c13c
000001d0: dc7f 733d a3a2 553d 1622 07bd 8240 673c
000001e0: 769e 233d b49b f6bc 3594 9a3b 61ac aabc
000001f0: 8c0d a5bb 6524 4f3c a909 953b 8ba8 99bc

conv3.weight f4 [64, 128, 3]
-0.008721499 0.040359583 -0.005799406 -0.033665285 0.04253337 0.0208114 -0.0026633255 0.030106302
0.04082102 0.03883009 -0.0044085905 0.031129364 -0.031821225 -0.015780203 0.040585075 -0.027727926
0.05104543 0.0015648806 0.00893022 -0.04931221 -0.033298533 0.036185402 -0.05514928 -0.05438841
0.027441764 0.011661856 -0.012621697 -0.014828428 -0.0031395564 0.03486364 0.03300976 0.033587746
0.025377281 -0.038597085 0.048486426 -0.003510534 -0.023798978 0.011793268 -0.0076649548 0.013367391
0.028434629 0.023095956 -0.013994491 0.017339664 -0.039483305 -0.025289783 -8.81325e-05 -0.022046104
0.042324226 -0.00205857 -0.046252504 0.05005717 -0.032790244 -4.5420643e-06 -0.0149857 0.019788427
0.030491536 -0.0077616926 0.047403418 0.0021134221 -0.04350683 -0.033141237 0.03447731 -0.013059512
-0.05600118 -0.029242078 0.016358776 -0.016292421 0.010188785 0.006399701 0.020785563 -0.003561899
-0.049233183 -0.0067752292 0.038310744 -0.012812347 0.033154305 -0.012486226 -0.004748367 0.028440386
0.019574504 0.014205553 -0.0064907344 -0.00036480493 0.04658968 -0.041533593 -0.033622745 -0.04539343
0.012727566 -0.0014139696 0.014659152 -0.039278984 -0.036752943 -0.051048897 0.038758535 0.036259495
0.04453962 -0.026146071 -0.01978728 -0.037732434 0.030498158 0.008121713 0.04122438 0.01531209
-0.047477033 -0.03907216 -0.0039717504 0.008026671 0.04560472 -0.0110043045 0.025146248 0.03141675
-0.025366891 0.000786292 0.036729626 0.012249704 -0.014833123 -0.036008183 0.04043829 -0.007805631
-0.041241467 0.030961042 0.0047133043 0.007727769 -0.033989713 -0.024076438 -0.011221183 -0.008148719
-0.031339716 0.016066868 -0.015252793 0.040308833 0.0350371 -0.00023078083 0.013332111 0.011524861
0.05278412 -0.04581195 0.012250668 0.030041 -0.0008331685 0.0046362435 -0.030005675 0.0065739783
-0.0031660076 -0.014647519 -0.040595684 0.00015628495 -0.04165104 0.002068291 -0.027928647 -0.041462496
-0.045804065 0.021044197 0.019837935 0.019567506 0.004534117 -0.0013059556 -0.010369865 -0.00676144
-0.042813696 -0.015438399 -0.05594131 0.02941726 0.009546456 0.0097608585 -0.045441676 0.028888492
-0.055946395 0.040601414 0.039898794 0.04642166 0.032852538 0.04142172 -0.04827298 -0.026653977
0.042313434 0.04603985 0.048411008 0.047600493 -0.045405198 0.024149973 -0.026186468 -0.048467133
0.026997674 0.028072719 0.010149732 0.016733887 -0.02030837 0.032283638 0.025231954 -0.024446782
0.0039904746 -0.0058464296 0.024363622 -0.0043843873 -0.027445259 -0.026085723 0.0164511 -0.0016221834
-0.00093559624 -0.014108599 -0.006107079 0.0049869344 0.003329539 0.012141407 0.03326278 0.023711208
-0.01151911 -0.03479626 0.031200172 0.020354668 0.017651869 -0.02953445 0.014910098 -0.0466581
0.029579904 -0.03851586 0.032400895 -0.026534578 0.049658548 0.05512124 0.0126171885 0.050370365
-0.018802557 0.0075567244 -0.032405857 0.017879877 0.04188665 -0.051016755 0.01060349 -0.014121532
0.040856265 0.0115452325 -0.01886626 -0.051952552 -0.026360188 -0.04432751 0.015088041 0.030377172
0.011825767 0.050779723 -0.027899772 -0.035857603 0.040152483 -0.03717342 -0.041942034 -0.01395324
-0.04150243 -0.04655354 0.00893686 0.044045128 -0.034500327 -0.011163862 -0.01581748 0.041604724
00000000: 9ee4 0ebc 1750 253d f208 bebb 9ce4 09bd
00000010: 7937 2e3d ab7c aa3c 308b 2ebb 7ea1 f63c
00000020: f133 273d 4d0c 1f3d f075 90bb 0203 ff3c
00000030: f956 02bd 7c45 81bc 893c 263d ad25 e3bc
00000040: 0315 513d ae1c cd3a 0f50 123c 9afb 49bd
00000050: 0b64 08bd 2537 143d 36e4 61bd 62c6 5ebd
00000060: 8dcd e03c 5f11 3f3c 3ccb 4ebc eff2 72bc
00000070: 04c1 4dbb 2dcd 0e3d 3e35 073d 4e93 093d
00000080: 04e4 cf3c fa17 1ebd b499 463d fd10 66bb
00000090: 13f6 c2bc 8d38 413c 4d2a fbbb e702 5b3c
000000a0: bdef e83c bb33 bd3c 2649 65bc e90b 8e3c
000000b0: 3fb9 21bd 852c cfbc c7d3 b8b8 089a b4bc
000000c0: 2b5c 2d3d 13e9 06bb 4473 3dbd bf08 4d3d
000000d0: 104f 06bd 0968 98b6 9586 75bc 571b a23c
000000e0: 63c9 f93c cc55 febb 162a 423d 5781 0a3b
000000f0: 3834 32bd 1bbf 07bd 1438 0d3d 90f7 55bc
00000100: 7e61 65bd 158d efbc d702 863c af77 85bc
00000110: ddee 263c 95b4 d13b 7c46 aa3c c06e 69bb
00000120: bca8 49bd be02 debb baeb 1c3d e1ea 51bc
00000130: cfcc 073d 0793 4cbc 3098 9bbb d0fb e83c
00000140: b65a a03c 68be 683c 3ab0 d4bb 4a43 bfb9
00000150: d2d4 3e3d 211f 2abd 01b8 09bd 76ee 39bd
00000160: 4887 503c f254 b9ba f12c 703c 00e3 20bd
00000170: 418a 16bd a618 51bd 45c1 1e3d d684 143d
00000180: 2d6f 363d 4930 d6bc ef18 a2bc 538d 1abd
00000190: 46d7 f93c ef10 053c e5da 283d 8fdf 7a3c
000001a0: 4777 42bd 210a 20bd 7525 82bb 4c82 033c
000001b0: 04cc 3a3d 664b 34bc 81ff cd3c daae 003d
000001c0: 3ace cfbc 2a1f 4e3a ce71 163d fcb2 483c
000001d0: a106 73bc 517d 13bd 9fa2 253d 61c6 ffbb
000001e0: d0ec 28bd 03a2 fd3c 1072 9a3b 3a39 fd3b
000001f0: cc38 0bbd f33b c5bc 0ed9 37bc 3482 05bc
00000200: 135e 00bd aa9e 833c dae6 79bc e01a 253d
00000210: 1083 0f3d c2fd 71b9 ed6e 5a3c c5d2 3c3c
00000220: 2934 583d 50a5 3bbd 07b7 483c 8b18 f63c
00000230: fe68 5aba a1eb 973b 76ce f5bc 876a d73b
00000240: cb7c 4fbb 26fc 6fbc a947 26bd 6ce0 2339
00000250: 489a 2abd 2a8c 073b 9eca e4bc 94d4 29bd
00000260: 0b9d 3bbd e164 ac3c 2a83 a23c 094c a03c
00000270: ee92 943b 992c abba 5ee6 29bc 128f ddbb
00000280: 6a5d 2fbd 57f1 7cbc b722 65bd 77fc f03c
00000290: bd68 1c3c 02ec 1f3c 0d21 3abd 8fa7 ec3c
000002a0: 0c28 65bd ab4d 263d eb6c 233d a324 3e3d
000002b0: 6290 063d d2a9 293d e3b9 45bd 7159 dabc
000002c0: da50 2d3d 4894 3c3d 9f4a 463d bcf8 423d
000002d0: cdfa 39bd 2ad6 c53c 0185 d6bc 7985 46bd
000002e0: 3a2a dd3c c2f8 e53c 104b 263c 8115 893c
000002f0: bd5d a6bc d93b 043d 3eb3 ce3c 9e44 c8bc
00000300: 87c2 823b 6893 bfbb 3896 c73c e8aa 8fbb
00000310: e1d4 e0bc bab1 d5bc 75c4 863c 719f d4ba
00000320: cd42 75ba c127 67bc e41d c8bb 7069 a33b
00000330: 6534 5a3b c0ec 463c 8e3e 083d 023e c23c
00000340: a6ba 3cbc 8686 0ebd 8197 ff3c d5be a63c
00000350: a79a 903c 3bf2 f1bc 7c49 743c 901c 3fbd
00000360: 8e51 f23c cec2 1dbd cdb6 043d 0b5f d9bc
00000370: c366 4b3d cfc6 613d 53b8 4e3c 2851 4e3d
00000380: d207 9abc 669e f73b 01bc 04bd d278 923c
00000390: 5691 2b3d f2f6 50bd 43ba 2d3c 005e 67bc
000003a0: e658 273d 3728 3d3c 6a8d 9abc 33cc 54bd
000003b0: 52f1 d7bc c390 35bd d533 773c 8cd9 f83c
000003c0: ddc0 413c 66fe 4f3d 108e e4bc 6cdf 12bd
000003d0: ee76 243d 2843 18bd 69cb 2bbd 219c 64bc
000003e0: 74fe 29bd edae 3ebd e86b 123c aa68 343d
000003f0: 3750 0dbd a2e8 36bc a993 81bc b769 2a3d

conv3.bias f4 [64]
-0.0046835765 0.03040325 -0.004053725 0.03331513 0.0128454175 0.02061843 -0.007713328 0.0068220273
-0.028179944 -0.05258711 -0.041906916 0.033301447 -0.007754114 0.027925525 0.02521065 0.022737017
0.044499114 -0.03559225 0.041987125 -0.055015355 -0.033264395 0.036546048 0.032918513 -0.027302878
0.013029887 0.04527873 0.021005169 -0.026576508 0.010219878 0.015819585 -0.05250363 -0.029294023
0.04024384 -0.052707486 0.0069412347 -0.028209338 -0.009110326 0.004459982 0.016113676 0.039569892
-0.039705433 0.023752624 -0.034434263 -0.036098495 0.015851537 0.041084684 0.054213166 -0.0394211
0.03211898 -0.039646897 -0.039498314 0.03770506 -0.0018499915 -0.03394307 0.027501155 0.025175963
0.04945022 -0.013829437 -0.030948155 -0.00210585 -0.038138516 -0.027732441 0.030803526 -0.041437168
00000000: b078 99bb 3d10 f93c 1cd5 84bb 7275 083d
00000010: 9675 523c fbe7 a83c 16c0 fcbb 508b df3b
00000020: a0d9 e6bc 9565 57bd 96a6 2bbd 1967 083d
00000030: 3916 febb 12c4 e43c 9186 ce3c fb42 ba3c
00000040: b444 363d 2ec9 11bd b1fa 2b3d c857 61bd
00000050: 3f40 08bd 4fb1 153d 90d5 063d 49aa dfbc
00000060: 4f7b 553c 3176 393d 0813 ac3c fab6 d9bc
00000070: 4671 273c 1398 813c 0c0e 57bd 05fa efbc
00000080: bad6 243d cee3 57bd 4c73 e33b 4517 e7bc
00000090: 7a43 15bc 0a25 923b d400 843c 0a14 223d
000000a0: 2aa2 22bd dd94 c23c f10a 0dbd 04dc 13bd
000000b0: 15db 813c 6a48 283d a00e 5e3d 0578 21bd
000000c0: 318f 033d c964 22bd fcc8 21bd 9f70 1a3d
000000d0: 6a7b f2ba e307 0bbd 1a4a e13c d23d ce3c
000000e0: 508c 4a3d dd94 62bc fc86 fdbc 4d02 0abb
000000f0: 2237 1cbd 252f e3bc ad57 fc3c 05ba 29bd

fc1.weight f4 [32, 64]
0.12500675 -0.03705471 0.08533829 -0.10430027 -0.07670582 0.074247725 -0.046413593 -0.0064646355
0.005230274 -0.07568152 -0.06961127 -0.043715656 0.019398004 -0.02380462 0.081122726 -0.07286708
-0.11905421 0.043448042 -0.07226581 -0.0009646786 0.011198179 0.09548923 -0.09298336 0.06735635
-0.071926706 0.11128393 0.07287913 0.07618817 -0.0028021955 -0.13125624 -0.0137019055 0.04548475
-0.11592078 0.011845856 0.10463279 0.077981986 -0.032635532 -0.090331785 -0.0048572584 0.11069967
-0.09009044 -0.087003596 0.015445787 0.12018931 -0.021269657 0.10866837 0.028509952 -0.028072499
-0.07078814 -0.119855195 -0.073128305 -0.07170051 0.06582604 -0.062448364 0.004237821 -0.017035298
0.032931678 -0.0028409115 -0.040110637 -0.030298756 0.088969335 -0.002647874 0.06447322 0.08096737
-0.07726742 0.040672705 -0.11120758 -0.049009953 -0.00063488435 0.0034181068 0.11913976 -0.08116639
-0.0812298 -0.0020473679 -0.10710009 -0.0777431 -0.005771265 -0.109156676 0.10394787 -0.0063545317
0.0638167 -0.10588092 0.03536077 0.09445205 0.06549008 0.012246887 0.11533272 -0.08100984
0.03087665 -0.07317649 -0.019551756 -0.052650683 -0.09671275 -0.10407718 0.10278014 -0.048135847
-0.062059548 0.08866804 0.12621617 -0.039417036 0.032360088 0.0816534 -0.11197091 0.11358471
-0.05007472 0.002974053 0.11897079 -0.038647734 -0.037254173 0.046468273 -0.061601195 -0.12287796
0.05208644 0.08038693 0.06717579 -0.046513606 -0.0068103815 0.09271354 0.07235562 0.09359767
0.020448644 -0.09087098 0.08428429 -0.03734733 0.030032508 -0.09928807 0.042311504 0.061099138
0.042906873 0.017070772 0.06894864 -0.06482301 0.06199433 0.009741515 -0.03914488 -0.11524095
-0.052058414 -0.056539834 -0.007244392 0.050559394 0.08182697 0.13099767 0.10127872 -0.012827725
0.07122441 0.05113507 -0.051392958 -0.12835759 0.031996798 0.029532155 0.12863943 -0.077280976
-0.023943495 0.10094301 -0.11496327 -0.12029056 -0.120604955 -0.04759834 -0.04838388 -0.032416906
0.069426365 0.05543779 0.004736857 -0.067021735 0.058974113 -0.11879788 -0.07315505 -0.03744753
-0.028650213 -0.015145328 -0.12453599 -0.0156031465 0.0750546 0.03276482 0.036457043 -0.03546551
0.12413754 0.036158685 0.117058985 -0.027752746 0.105175704 -0.03300905 0.036983587 0.09807142
0.03258152 -0.014869034 0.09748815 -0.051590815 -0.03385907 0.10302414 0.087027736 0.003720706
-0.0023619041 -0.054716107 -0.06555278 0.0016794415 0.11252089 -0.09327977 -0.015010882 0.1121855
0.05886265 -0.11898811 0.078435704 -0.039020304 -0.12958394 -0.08252848 0.033238944 0.08007955
0.082832344 0.042437408 -0.06625555 -0.098204456 -0.1143175 0.053378973 0.068491854 -0.020037498
-0.100737676 -0.03190527 0.012329099 0.080217525 -0.07609007 -0.091249846 0.11298121 -0.04431418
0.07038394 -0.08849214 -0.052418515 -0.041447513 0.020663453 0.056528125 -0.08854744 -0.08985812
0.06267701 0.10311108 -0.08968536 0.009994328 -0.10570627 0.019058496 -0.10775637 -0.04383685
-0.078583986 -0.06010601 -0.120123364 0.09910937 -0.061925177 0.08324344 -0.02750957 0.12365723
-0.08615284 0.016267799 -0.028996868 0.047354963 0.021122025 -0.0831802 0.031741202 0.09837963
00000000: c501 003e aec6 17bd d7c5 ae3d 619b d5bd
00000010: f117 9dbd 310f 983d 2e1c 3ebd 4bd5 d3bb
00000020: b862 ab3b eafe 9abd 5b90 8ebd 300f 33bd
00000030: 90e8 9e3c e801 c3bc ac23 a63d 563b 95bd
00000040: b2d2 f3bd 93f6 313d 1900 94bd 7ce2 7cba
00000050: 9178 373c db8f c33d 0f6e bebd 20f2 893d
00000060: 4f4e 93bd d4e8 e33d a741 953d 8b08 9c3d
00000070: 0aa5 37bb 0968 06be f57d 60bc 384e 3a3d
00000080: e067 edbd 1f15 423c b749 d63d 05b5 9f3d
00000090: d6ac 05bd dfff b8bd a329 9fbb 82b6 e23d
000000a0: 5681 b8bd f12e b2bd 5410 7d3c d025 f63d
000000b0: b43d aebc 868d de3d b48d e93c 4cf8 e5bc
000000c0: 5ff9 90bd a476 f5bd 4bc4 95bd b8d7 92bd
000000d0: cecf 863d dbc9 7fbd 6bdd 8a3b 9c8d 8bbc
000000e0: 5ee3 063d 962e 3abb 0d4b 24bd 1935 f8bc
000000f0: 8e35 b63d f487 2dbb 890a 843d 38d2 a53d
00000100: 623e 9ebd 6c98 263d cdc0 e3bd a9be 48bd
00000110: 5e6e 26ba 5102 603b 8cff f33d 903a a6bd
00000120: cf5b a6bd 222d 06bb 4b57 dbbd c637 9fbd
00000130: e11c bdbb 898d dfbd 9fe2 d43d ad39 d0bb
00000140: 54b2 823d 19d8 d8bd 74d6 103d 1470 c13d
00000150: aa1f 863d 2ba7 483c 9033 ec3d 7de8 a5bd
00000160: 07f1 fc3c 8edd 95bd 012b a0bc 3ea8 57bd
00000170: 5611 c6bd 6b26 d5bd 657e d23d 182a 45bd
00000180: 2732 7ebd 9797 b53d d03e 013e c273 21bd
00000190: 038c 043d e639 a73d 0151 e5bd 1a9f e83d
000001a0: 261b 4dbd 54e8 423b f5a6 f33d 164d 1ebd
000001b0: d597 18bd 8455 3e3d 8951 7cbd 71a7 fbbd
000001c0: 9758 553d e7a1 a43d 7693 893d 0d85 3ebd
000001d0: 9f29 dfbb 99e0 bd3d 2f2f 943d 23b0 bf3d
000001e0: ea83 a73c 901a babd 3e9d ac3d 84f9 18bd
000001f0: bc06 f63c 8b57 cbbd d44e 2d3d 1743 7a3d
00000200: 1ebf 2f3d 01d8 8b3c f234 8d3d edc1 84bd
00000210: c4ed 7d3d e09a 1f3c 6256 20bd 7203 ecbd
00000220: 343b 55bd 5096 67bd 5d62 edbb 5e17 4f3d
00000230: e694 a73d 4124 063e 386b cf3d 612b 52bc
00000240: 1ade 913d 0273 513d 6c81 52bd 2c70 03be
00000250: 130f 033d 6bed f13c 0eba 033e 7d45 9ebd
00000260: 2625 c4bc 35bb ce3d dd71 ebbd e65a f6bd
00000270: bbff f6bd 7af6 42bd 2d2e 46bd 97c7 04bd
00000280: 692f 8e3d bc12 633d a337 9b3b b142 89bd
00000290: d78e 713d 4e4c f3bd 51d2 95bd 9562 19bd
000002a0: dab3 eabc 1c24 78bc ba0c ffbd 57a4 7fbc
000002b0: 3ab6 993d 6734 063d fb53 153d 4844 11bd
000002c0: d33b fe3d 211b 143d 9fbc ef3d ba59 e3bc
000002d0: 5c66 d73d 7f34 07bd 1a7c 173d abd9 c83d
000002e0: 3374 053d 409d 73bc dea7 c73d e450 53bd
000002f0: cfaf 0abd 52fe d23d 993b b23d 17d7 733b
00000300: 2dca 1abb ff1d 60bd 8940 86bd b520 dc3a
00000310: 5a71 e63d 7709 bfbd 34f0 75bc 83c1 e53d
00000320: f619 713d 0ab0 f3bd e6a2 a03d c1d3 1fbd
00000330: a7b1 04be b104 a9bd 8f25 083d bf00 a43d
00000340: 01a4 a93d d9d2 2d3d fdb0 87bd 6b1f c9bd
00000350: 4b1f eabd e9a3 5a3d 7545 8c3d ae25 a4bc
00000360: 8e4f cebd 1aaf 02bd fdff 493c 1649 a43d
00000370: 1cd5 9bbd 33e1 babd b162 e73d c982 35bd
00000380: 7525 903d 5e3b b5bd ccb4 56bd dec4 29bd
00000390: 6746 a93c 098a 673d 5c58 b5bd 8907 b8bd
000003a0: ce5c 803d e72b d33d f5ac b7bd 40bf 233c
000003b0: 877c d8bd 9020 9c3c 5faf dcbd 458e 33bd
000003c0: a4f0 a0bd b831 76bd 3d03 f6bd daf9 ca3d
000003d0: 41a5 7dbd 897b aa3d c05b e1bc 0040 fd3d
000003e0: e670 b0bd 0c44 853c d78a edbc 47f7 413d
000003f0: 1908 ad3c 615a aabd 1003 023d 427b c93d

fc1.bias f4 [32]
0.11045731 -0.0060015516 0.10259125 0.013175429 0.074380316 0.031946164 0.050086115 0.003126439
-0.08330447 0.06685831 0.09521494 0.11161476 0.024750615 0.118762575 0.092698805 0.01998615
0.09219578 0.110856265 -0.07869867 -0.12601842 0.09293318 -0.01234883 0.08559673 0.09778941
0.017175147 -0.10651625 0.014380221 0.04952942 -0.056341838 0.08127865 -0.03983135 -0.07717472
00000000: 7137 e23d aaa8 c4bb 5c1b d23d c1dd 573c
00000010: b554 983d fbd9 023d 1927 4d3d f1e4 4c3b
00000020: 899b aabd 02ed 883d 0d00 c33d 4796 e43d
00000030: cdc1 ca3c cb39 f33d dfd8 bd3d ffb9 a33c
00000040: 24d1 bc3d 9c08 e33d c52c a1bd f90a 01be
00000050: c053 be3d bf52 4abc 574d af3d d045 c83d
00000060: e5b2 8c3c 3125 dabd 059b 6b3c 5cdf 4a3d
00000070: b3c6 66bd 6c75 a63d 3326 23bd c80d 9ebd

fc2.weight f4 [14, 32]
0.10349218 0.15220003 0.06526208 -0.02172451 -0.14870256 0.14328188 -0.13852474 -0.13895093
-0.12525289 0.16151465 -0.07105131 0.0064241583 -0.065416664 0.16269459 0.13992651 0.074038476
-0.10910817 -0.1647226 -0.16129665 0.13562514 0.061517756 -0.07450317 0.13504186 -0.029164786
-0.024565633 -0.028196158 0.082430325 -0.12012534 0.024025697 0.14636432 -0.076461904 0.09878883
0.013119274 0.01333222 -0.14092477 -0.124653265 0.13782038 -0.058703043 -0.035598543 -0.031163907
-0.09465583 -0.06681015 0.039134894 -0.07580598 -0.10895339 -0.072005875 0.0018799857 0.037834357
-0.165835 0.08133845 -0.053697113 0.082964174 -0.104425386 -0.106134444 0.13910644 -0.087422
0.088888116 0.068217814 -0.07553294 -0.115452655 0.15358599 0.02077756 0.051289372 0.10692247
0.14997531 0.13436496 -0.16583581 -0.031738844 -0.05098761 -0.10694852 -0.08439904 -0.008074268
-0.14926012 0.17679855 -0.1587654 -0.07008699 0.18170112 -0.03723123 0.06742588 0.123712875
-0.10193309 -0.16767775 -0.09666009 0.013985007 -0.08394734 0.003591342 -0.060265686 0.00015817472
-0.16292076 0.04217407 0.17030276 -0.09977213 0.14543955 0.091240965 -0.089449674 0.040879846
-0.12662609 0.07493915 0.056540724 -0.11781544 -0.13413955 -0.13830914 0.0037743868 -0.12368593
-0.00444929 0.14650083 -0.16627306 0.0023732954 -0.07373851 0.009394931 0.1434301 -0.14257595
0.061665677 0.016831268 -0.0009378566 -0.09156693 0.01287404 0.123551376 -0.0020619659 0.049318366
0.10749917 0.087621294 0.15151031 -0.108738914 0.019755457 -0.07357365 -0.022873627 -0.15797111
0.10344859 -0.084312774 0.16758636 0.13856466 0.16775821 0.08017032 -0.12974244 -0.096962996
-0.00083325326 -0.14921871 0.12582287 0.025720017 0.10267433 -0.047662977 -0.03513262 0.16212311
-0.11878883 -0.027828867 -0.13575195 -0.023003625 0.010675304 -0.051389232 0.14669302 -0.08317513
0.0774308 -0.102166116 -0.050031673 0.17086019 -0.14591406 -0.016046984 0.05042187 0.09399264
-0.1444587 -0.05207593 -0.040751234 0.14771178 0.026678862 -0.11349304 -0.05815753 -0.088756144
0.09716819 0.024493521 0.026409162 -0.011360614 -0.05105358 -0.036300097 0.16968738 -0.12697162
0.042519722 -0.060399476 -0.05111258 -0.111530304 0.087604836 -0.10466571 0.018265804 -0.06773814
-0.13813227 0.08369662 -0.14459752 -0.03335785 -0.0030820353 0.020929849 -0.107604854 -0.0077029294
0.10669241 -0.10010713 0.14251208 0.14322473 -0.04858014 -0.07964047 0.06215684 0.16605617
0.027809676 0.16622137 -0.14846793 0.00075733743 0.092287436 -0.049929757 0.13323618 -0.16249627
-0.087517686 -0.04590693 -0.04346485 -0.15412281 0.07653563 -0.1390557 -0.0536365 0.053636625
-0.016264323 -0.007306845 0.039738234 0.04746341 -0.10489598 0.01564344 -0.06958579 -0.13579486
0.15286241 0.08962151 -0.07523829 -0.079864435 0.12414898 -0.124211155 -0.0748239 0.13318837
0.11317672 0.005774935 -0.07293804 -0.09395728 0.045692377 -0.01353377 0.1395034 0.12289146
-0.16683926 0.070822805 -0.004784954 0.05351224 -0.01971578 0.15214285 -0.07975814 0.16949399
0.030589825 -0.07617999 -0.002562121 0.12083734 0.12662609 0.028888062 -0.15864639 0.07840968
00000000: b5f3 d33d 53da 1b3e 20a8 853d 99f7 b1bc
00000010: 7c45 18be 7cb8 123e 6ed9 0dbe 2749 0ebe
00000020: 4b42 00be 1964 253e 5983 91bd bf81 d23b
00000030: 2cf9 85bd 6999 263e e548 0f3e 7ca1 973d
00000040: 1b74 dfbd 0bad 28be f32a 25be 51e1 0a3e
00000050: 0bfa 7b3d 1e95 98bd 6a48 0a3e fdea eebc
00000060: de3d c9bc a1fb e6bc 3bd1 a83d 4604 f6bd
00000070: 8ad1 c43c 87e0 153e 0f98 9cbd cc51 ca3d
00000080: 39f2 563c 626f 5a3c 954e 10be 364a ffbd
00000090: c920 0d3e 9a72 70bd c7cf 11bd 734b ffbc
000000a0: eada c1bd c3d3 88bd e94b 203d 2a40 9bbd
000000b0: f422 dfbd d177 93bd da69 f63a 33f8 1a3d
000000c0: a6d0 29be c694 a63d 81f1 5bbd 1fe9 a93d
000000d0: fadc d5bd 045d d9bd eb71 0e3e 4e0a b3bd
000000e0: f90a b63d c8b5 8b3d 04b1 9abd 7172 ecbd
000000f0: a545 1d3e b435 aa3c ce14 523d 2bfa da3d
00000100: 2193 193e f896 093e ddd0 29be 9700 02bd
00000110: 62d8 50bd d307 dbbd 67d9 acbd ef49 04bc
00000120: a5d7 18be ae0a 353e 6693 22be c589 8fbd
00000130: dc0f 3a3e c67f 18bd 9416 8a3d 2d5d fd3d
00000140: 4cc2 d0bd b7b3 2bbe baf5 c5bd 5f21 653c
00000150: 95ec abbd b85c 6b3b 27d9 76bd b4db 2539
00000160: b3d4 26be b8be 2c3d d963 2e3e 5555 ccbd
00000170: 1bee 143e 8bdc ba3d 6431 b7bd a071 273d
00000180: 45aa 01be b279 993d 3f97 673d 3949 f1bd
00000190: e15b 09be e9a0 0dbe b45b 773b 0d4f fdbd
000001a0: 5acb 91bb 5004 163e 7c43 2abe 4a89 1b3b
000001b0: 3704 97bd 32ed 193c 57df 123e 6eff 11be
000001c0: 2695 7c3d bae1 893c 7eda 75ba 7187 bbbd
000001d0: a3ed 523c 8108 fd3d 0c22 07bb 0e02 4a3d
000001e0: 8628 dc3d cb72 b33d 8525 1b3e 82b2 debd
000001f0: 32d6 a13c c8ad 96bd 7961 bbbc 2ec3 21be
00000200: dbdc d33d 2dac acbd c29b 2b3e e5e3 0d3e
00000210: cfc8 2b3e 5630 a43d 34db 04be 8994 c6bd
00000220: ae6e 5aba cacc 18be b6d7 003e c9b2 d23c
00000230: eb46 d23d 413a 43bd 39e7 0fbd 9a03 263e
00000240: 8f47 f3bd 5df9 e3bc 8f02 0bbe 1972 bcbc
00000250: 78e7 2e3c 847d 52bd b236 163e b957 aabd
00000260: 0a94 9e3d 783c d1bd 03ee 4cbd f9f5 2e3e
00000270: 7f6a 15be f774 83bc 2a87 4e3d 377f c03d
00000280: fbec 13be 924d 55bd c4ea 26bd c241 173e
00000290: a18d da3c 0a6f e8bd 9736 6ebd c8c5 b5bd
000002a0: 1e00 c73d a3a6 c83c 0758 d83c de21 3abc
000002b0: 8f1d 51bd 69af 14bd 87c2 2d3e d904 02be
000002c0: 2929 2e3d 7165 77bd 6d5b 51bd 006a e4bd
000002d0: 2a6a b33d fa5a d6bd 2ba2 953c 4bba 8abd
000002e0: 8c72 0dbe 2269 ab3d 5f11 14be 3ea2 08bd
000002f0: f9fb 49bb 1375 ab3c ef5f dcbd db68 fcbb
00000300: 8d81 da3d f804 cdbd b0ee 113e 81a9 123e
00000310: f8fb 46bd 8b1a a3bd 2c98 7e3d a10a 2a3e
00000320: 1ed1 e33c ef35 2a3e fa07 18be 0e88 463a
00000330: 3201 bd3d 2583 4cbd 116f 083e 6c65 26be
00000340: 793c b3bd e808 3cbd 3308 32bd 5fd2 1dbe
00000350: b6be 9c3d 9e64 0ebe f2b1 5bbd 14b2 5b3d
00000360: c23c 85bc 426e efbb 8fc4 223d fe68 423d
00000370: b4d3 d6bd ac26 803c ff82 8ebd cf0d 0bbe
00000380: f787 1c3e 7b8b b73d 8816 9abd f78f a3bd
00000390: d241 fe3d 6b62 febd 463d 99bd 8862 083e
000003a0: 32c9 e73d aa3b bd3b 8a60 95bd ad6c c0bd
000003b0: ee27 3b3d bfbc 5dbc fbd9 0e3e 85ae fb3d
000003c0: e9d7 2abe 8c0b 913d 1acb 9cbb a72f 5b3d
000003d0: fd82 a1bc 56cb 1b3e 3c58 a3bd d58f 2d3e
000003e0: 8397 fa3c 4104 9cbd 42e9 27bb 9179 f73d
000003f0: 45aa 013e a8a6 ec3c 3374 22be 4195 a03d

fc2.bias f4 [14]
0.008318609 0.12549832 -0.0075967563 -0.018256152 -0.051187374 0.06928289 0.155371 0.046747226
0.14653766 -0.12973714 -0.13210268 -0.059086546 -0.014658853 -0.10274693
00000000: c64a 083c a282 003e 36ee f8bb ed8d 95bc
00000010: daa9 51bd 30e4 8d3d 9319 1f3e 057a 3f3d
00000020: f80d 163e d0d9 04be ed45 07be bc04 72bd
00000030: b02b 70bc fc6c d2bd
